predictor/src/androidTest/resources/glucose_model.tflite (tflite, 43056 bytes, 7 tensors)

sequential/dense_2/MatMul;sequential/dense_2/BiasAdd f4 [12]
0	0xbcf43aa4	-0.029813118
1	0x3d2b24d9	0.041783188
2	0x3cbf0df9	0.023322092
3	0x3d1c97e3	0.038230788
4	0x3ca460b2	0.02006564
5	0x3c144414	0.009049434
6	0x3cced2e9	0.025247054
7	0x3d092aa6	0.03348794
8	0x3d2695b5	0.040670116
9	0xbbee8eaf	-0.007280193
10	0xbd42d78c	-0.047568843
11	0xbd2ac499	-0.041691396

sequential/normalization/truediv;sequential/normalization/Sqrt f4 [1, 159]
0	0x3e17b474	0.14814931
1	0x3dafec97	0.08590048
2	0x3d613c87	0.054989364
3	0x3f59279a	0.8482605
4	0x3f5a0382	0.851616
5	0x3f5637cf	0.8367891
6	0x3f57293b	0.8404729
7	0x3f5b7ca0	0.8573704
8	0x3f5ed029	0.8703638
9	0x3f5d73c9	0.865048
10	0x3f5baca4	0.85810304
11	0x3f5ffa1c	0.8749101
12	0x3f5f9fbe	0.8735312
13	0x3f5e48b3	0.8682968
14	0x3f616453	0.8804371
15	0x3f621993	0.88320273
16	0x3f604686	0.8760761
17	0x3f60b1d3	0.8777134
18	0x3f5e253e	0.8677558
19	0x3f5e4b4c	0.86833644
20	0x3f613a9c	0.87980056
21	0x3f6243ea	0.8838488
22	0x3f5e6e81	0.86887366
23	0x3f6056fa	0.87632716
24	0x3f628a74	0.8849251
25	0x3f650bd0	0.8947115
26	0x3f5ecc14	0.8703015
27	0x41130105	9.187749
28	0x41100568	9.00132
29	0x411ab7dc	9.669888
30	0x411b221d	9.695828
31	0x41172e53	9.44881
32	0x411456ba	9.2711735
33	0x41177362	9.46567
34	0x411a8151	9.656571
35	0x41144116	9.26589
36	0x411823cb	9.5087385
37	0x411ebc11	9.920915
38	0x411b0013	9.687518
39	0x411cefaa	9.808512
40	0x411f4000	9.953125
41	0x4118a7da	9.540979
42	0x411e45fe	9.892088
43	0x411ac0f3	9.672107
44	0x411b1528	9.692665
45	0x411b0bfe	9.690428
46	0x411c6e33	9.776904
47	0x411bf98a	9.748423
48	0x411dc4cb	9.860545
49	0x41194d5a	9.581385
50	0x41191c89	9.569467
51	0x3f197b47	0.5995373
52	0x3f1a9779	0.6038738
53	0x3f1bc807	0.6085209
54	0x3f1cdf8e	0.6127862
55	0x3f1dd1b2	0.61648095
56	0x3f1e9f60	0.61961937
57	0x3f1f5d7f	0.6225204
58	0x3f20069c	0.62510085
59	0x3f2077f1	0.62683016
60	0x3f208c92	0.62714493
61	0x3f202779	0.6256023
62	0x3f1f6b68	0.62273264
63	0x3f1e7ee7	0.6191239
64	0x3f1da2e5	0.6157668
65	0x3f1ce11e	0.61281
66	0x3f1c5793	0.6107113
67	0x3f1bbbf1	0.6083365
68	0x3f1b2b40	0.6061287
69	0x3f1a6306	0.6030735
70	0x3f19809a	0.59961855
71	0x3f18824a	0.59573805
72	0x3f179550	0.5921221
73	0x3f16eee3	0.5895826
74	0x3f16a98b	0.5885245
75	0x3f16b20b	0.5886542
76	0x3f16dd03	0.5893099
77	0x3f16fd7e	0.5898055
78	0x3f16fb16	0.58976877
79	0x3f16d501	0.5891877
80	0x3f16a7f6	0.5885004
81	0x3f1690a0	0.5881443
82	0x3f16889d	0.58802205
83	0x3f168dc4	0.5881007
84	0x3f169e96	0.5883573
85	0x3f16df4f	0.5893449
86	0x3f174ab3	0.59098357
87	0x3d8d73ad	0.06906829
88	0x3d8d30e5	0.068940915
89	0x3d8c91ee	0.068637714
90	0x3d8bfc53	0.068352364
91	0x3d8bb681	0.06821919
92	0x3d8bbbf3	0.06822958
93	0x3d8b6a80	0.06807423
94	0x3d8a3dd1	0.06750072
95	0x3d8824e4	0.06647661
96	0x3d85b8cc	0.06529388
97	0x3d83d04a	0.06436212
98	0x3d831fb5	0.06402532
99	0x3d83d0ab	0.06436285
100	0x3d859bf6	0.06523888
101	0x3d87c026	0.06628446
102	0x3d8961f6	0.06708138
103	0x3d8a24a3	0.06745269
104	0x3d8a2890	0.06746018
105	0x3d89d2cb	0.06729659
106	0x3d89b900	0.06724739
107	0x3d8a4d80	0.06753063
108	0x3d8b9366	0.068152234
109	0x3d8cfb9c	0.06883928
110	0x3d8e1ec6	0.06939463
111	0x3d8e8b77	0.069601946
112	0x3d8e2c21	0.06942011
113	0x3d8d06b1	0.06886042
114	0x3d8b886d	0.068131305
115	0x3d8a5a21	0.06755472
116	0x3d89b51e	0.067239985
117	0x3d893bf6	0.0670089
118	0x3d88dd84	0.06682876
119	0x3d88debb	0.066831075
120	0x3d895bcc	0.06706962
121	0x3d8a4cdc	0.06752941
122	0x3d8b51db	0.06802722
123	0x3d1bf142	0.03807188
124	0x3d1aff28	0.037840992
125	0x3d1bf746	0.038077615
126	0x3d1af724	0.037833348
127	0x3d1b3537	0.037892547
128	0x3d1c5d5c	0.038174972
129	0x3d1b3943	0.037896406
130	0x3d195bba	0.037440993
131	0x3d1a0797	0.037604894
132	0x3d1d852c	0.03845708
133	0x3d1d216e	0.03836196
134	0x3d1de218	0.038545698
135	0x3d1e407d	0.03863572
136	0x3d1b6c81	0.037945274
137	0x3d197de1	0.037473563
138	0x3d19d088	0.037552387
139	0x3d1adc8c	0.037807986
140	0x3d1c825d	0.03821026
141	0x3d1b7ba5	0.037959713
142	0x3d1c77e6	0.03820028
143	0x3d1c96ea	0.03822986
144	0x3d1c1553	0.038106274
145	0x3d19dcb5	0.037564
146	0x3d195cfe	0.0374422
147	0x3d1aa9ef	0.037759718
148	0x3d1bc102	0.038025863
149	0x3d1b0816	0.03784951
150	0x3d1aeab1	0.037821475
151	0x3d1c3e9e	0.038145654
152	0x3d1f409c	0.038879976
153	0x3d1f2450	0.03885299
154	0x3d1f5273	0.03889699
155	0x3d208052	0.039184876
156	0x3d1e7606	0.038686775
157	0x3d1c1d2f	0.03811377
158	0x3d1cd56b	0.03828947

Const_1 f4 [1, 159]
0	0x412762a1	10.461579
1	0x40d629a6	6.692584
2	0x4154cdb9	13.300225
3	0x3cc2479a	0.023715783
4	0x3cffaa62	0.031209175
5	0x3d4a75bb	0.049428683
6	0x3d4a5740	0.049399614
7	0x3ce6fd73	0.028197026
8	0x3cd00587	0.02539326
9	0x3cdc384a	0.02688231
10	0x3cb7374e	0.022365239
11	0x3ce517e8	0.027965501
12	0x3c554114	0.013016004
13	0xbc508bc2	-0.012728633
14	0xbd02a6da	-0.031897403
15	0xbd595a45	-0.053064603
16	0xbd8716e6	-0.065961644
17	0xbd7af2b1	-0.061266605
18	0xbd81c5f1	-0.063365825
19	0xbd8aade3	-0.067714475
20	0xbd38520f	-0.045000132
21	0xbcf16182	-0.02946544
22	0xbcdeef4a	-0.027213711
23	0xbcc38b60	-0.02387017
24	0xbcafcdd3	-0.02146045
25	0xbc6aebc9	-0.014338442
26	0xbc81b415	-0.01583294
27	0x3b401ee0	0.0029315278
28	0x3b2781b4	0.0025559487
29	0x3aef06e3	0.0018236305
30	0xbb0b0ce3	-0.0021217398
31	0xbb1b0634	-0.002365482
32	0xb9089b84	-0.00013027905
33	0xb9a4ac39	-0.00031408833
34	0x38eb45b0	0.000112186535
35	0xba72ee39	-0.00092670653
36	0xbb849b3e	-0.0040468266
37	0xbb934104	-0.0044938345
38	0xbb843e00	-0.0040357113
39	0xbb605fc4	-0.0034236768
40	0xba58f50b	-0.00082762603
41	0x398e4436	0.00027135172
42	0xba2c073a	-0.0006562356
43	0x3af05644	0.0018336256
44	0x3b7a316a	0.0038176426
45	0x3ae99bb8	0.0017822897
46	0x3a14d45f	0.0005677398
47	0x3a1c48ff	0.0005961805
48	0x3a7f2288	0.00097326236
49	0x3a14e174	0.0005679347
50	0xb95f5fd0	-0.0002130263
51	0x3ffdb67d	1.9821316
52	0x3ffd6893	1.9797539
53	0x3ffd34d3	1.9781746
54	0x3ffd1d22	1.9774516
55	0x3ffd1f7f	1.9775237
56	0x3ffd41f9	1.9785758
57	0x3ffd8e7a	1.9809105
58	0x3ffe0b24	1.984715
59	0x3ffeaff5	1.9897448
60	0x3fff6390	1.9952259
61	0x400008c1	2.0005343
62	0x40004a21	2.0045245
63	0x40007dfd	2.0076897
64	0x4000b1b7	2.0108469
65	0x4000f1a9	2.0147498
66	0x400141e2	2.0196462
67	0x400198e2	2.0249562
68	0x4001e0d7	2.0293481
69	0x40021770	2.0326805
70	0x400223d0	2.0334358
71	0x4002039c	2.0314703
72	0x4001bd77	2.027189
73	0x4001633c	2.0216818
74	0x40010e3f	2.0164945
75	0x4000d058	2.0127163
76	0x4000b307	2.010927
77	0x4000b54b	2.0110652
78	0x4000c96b	2.0122936
79	0x4000dcf4	2.013486
80	0x4000ef88	2.0146198
81	0x4000fac8	2.0153065
82	0x4000ffb6	2.0156074
83	0x4000f565	2.0149777
84	0x4000da35	2.0133183
85	0x4000ae8e	2.010654
86	0x40007fb6	2.0077949
87	0x40fbaf40	7.865143
88	0x40fceff6	7.904292
89	0x40fe7a9e	7.952468
90	0x410012b4	8.004566
91	0x41011b0c	8.069103
92	0x41029d74	8.163441
93	0x4104afce	8.292921
94	0x410706de	8.439177
95	0x41091737	8.568168
96	0x410a68e9	8.650613
97	0x410aadd5	8.667439
98	0x4109d8da	8.615442
99	0x41085dc1	8.522889
100	0x4106e9f2	8.432116
101	0x4105e389	8.368051
102	0x41054bbf	8.330993
103	0x4104f4f5	8.309804
104	0x4104a8f7	8.291251
105	0x4103fe0d	8.249524
106	0x4102c5ae	8.173262
107	0x4101489d	8.080228
108	0x40ffa8c0	7.9893494
109	0x40fd99a4	7.925005
110	0x40fcdf75	7.9022775
111	0x40fdad53	7.9274077
112	0x40ffc44a	7.992711
113	0x410131bd	8.074643
114	0x41025097	8.144675
115	0x4103429f	8.203765
116	0x41040b86	8.252813
117	0x410459f3	8.27196
118	0x41040426	8.251013
119	0x410339b2	8.201586
120	0x410245b3	8.142016
121	0x410179d4	8.092243
122	0x41012322	8.071077
123	0x426399d6	56.90023
124	0x42629f04	56.65529
125	0x4262a487	56.66067
126	0x4261ac04	56.417984
127	0x42614986	56.3218
128	0x425fce4f	55.951473
129	0x42605d73	56.09126
130	0x4260e270	56.22113
131	0x425dec6f	55.480892
132	0x425ef602	55.740242
133	0x425e8c21	55.636845
134	0x425fcf39	55.952366
135	0x42624c2f	56.574398
136	0x4264b557	57.17709
137	0x42637c63	56.87147
138	0x42627171	56.610783
139	0x426286a1	56.631474
140	0x4263d70d	56.96001
141	0x4262d88f	56.711483
142	0x42645c84	57.090347
143	0x4261e9b4	56.478226
144	0x4262cc96	56.69979
145	0x42620811	56.507877
146	0x42642635	57.03731
147	0x42639b3a	56.90159
148	0x42633583	56.802258
149	0x42616f48	56.358673
150	0x42618a6d	56.38518
151	0x42620cab	56.51237
152	0x42637a15	56.86922
153	0x4261ccb1	56.449894
154	0x4261047d	56.254383
155	0x42625c49	56.590122
156	0x42641440	57.019775
157	0x426421d6	57.033043
158	0x426547e9	57.320225

sequential/dense/BiasAdd/ReadVariableOp f4 [50]
0	0xbd102b35	-0.035197455
1	0xbbfdfe6d	-0.007751277
2	0xbd0d42a5	-0.034487385
3	0x3b85daa6	0.004084903
4	0x3d37fc99	0.04491863
5	0x3d249611	0.040182177
6	0x3ce81b95	0.028333465
7	0xbc774f38	-0.015094571
8	0x3beccbe4	0.007226454
9	0xbbfbacb0	-0.007680498
10	0x3c6fe781	0.014642597
11	0xbe067530	-0.13130641
12	0xbabcca66	-0.0014403581
13	0x3d36d12d	0.04463308
14	0x3d41e177	0.04733416
15	0x3da59fd9	0.08087129
16	0xbd108e37	-0.035291877
17	0xbd86d582	-0.06583692
18	0x3cd21482	0.025644545
19	0xbd474546	-0.04865005
20	0x3dd58516	0.10425775
21	0x3cab870b	0.020938417
22	0x3c766689	0.015039095
23	0x3dc69245	0.096958674
24	0xbd1bf5cb	-0.038076203
25	0xbc414428	-0.011796035
26	0x3cd46a34	0.025929548
27	0xbd97dbf2	-0.07414998
28	0xbd86d21e	-0.065830454
29	0xbcbb91ac	-0.02289661
30	0xbb445509	-0.0029957911
31	0xbdd321fa	-0.10309215
32	0xbc036e7f	-0.00802195
33	0xbd42898c	-0.047494456
34	0xbc8a48d8	-0.016880438
35	0x3d1bb4ee	0.038014345
36	0x3d54c997	0.051950064
37	0x3cd96a9c	0.026540093
38	0x3d891a17	0.06694429
39	0x3c14bf48	0.009078808
40	0x3da05d0f	0.078302495
41	0xbd362d70	-0.044476926
42	0xbd918697	-0.07105749
43	0x3ae2f9c9	0.0017316873
44	0x3cf74fd5	0.030189434
45	0xbd0110a0	-0.031509995
46	0x3d23bd94	0.039975718
47	0xbcac55d1	-0.021037014
48	0x3dfb2ec8	0.12264782
49	0xbca6c057	-0.020355387

sequential/dense/MatMul1 f4 [50, 159]
0	0x3e050299	0.12989272
1	0xbda01e8f	-0.078183286
2	0xbcdffdcf	-0.027342705
3	0x3d5fa20f	0.05459791
4	0xbc3b398f	-0.011427297
5	0x3e36add9	0.17839755
6	0x3dd9f9aa	0.10643323
7	0xbd8bad29	-0.06820137
8	0xbe49d6d9	-0.19710864
9	0xbca5a30d	-0.02021935
10	0xbe525115	-0.20538743
11	0x3d9d95ac	0.07694563
12	0xb9c63630	-0.00037805876
13	0xbbadea80	-0.0053074956
14	0x3e0f50d2	0.13995674
15	0x3cb80058	0.022461101
16	0xbd9da3c7	-0.07697254
17	0xbda5f3b3	-0.081031226
18	0x3e1e2fbb	0.15447895
19	0xbe19e219	-0.15027656
20	0x3e265abb	0.16245548
21	0xbe7078e9	-0.23483624
22	0x3caffdf8	0.021483406
23	0x3c5b1bfb	0.01337337
24	0xbe0c11d7	-0.1367868
25	0xbe67fc3c	-0.22654814
26	0xbd9b0599	-0.07569427
27	0x3d48adfa	0.048994042
28	0x3d3748c9	0.044747148
29	0xbdc30bae	-0.09523712
30	0x3d4be5f6	0.049779855
31	0x3de434bd	0.111428715
32	0x3ccb7556	0.024836224
33	0x3dc5ccd1	0.09658206
34	0xbaf78797	-0.0018885013
35	0x3e09e6e2	0.13466981
36	0xbcc9136b	-0.024545392
37	0x3df74d52	0.120752946
38	0xbde764eb	-0.112985454
39	0x3e2c705a	0.16839734
40	0xbe005816	-0.12533602
41	0xbc0dfc8a	-0.008666167
42	0xbd44b8cc	-0.0480278
43	0x3e951af4	0.29122126
44	0x3d2e0329	0.042483483
45	0x3d4f2545	0.050572652
46	0xbc9becf3	-0.019033885
47	0x3d835cc4	0.06414178
48	0xbc0fbaa0	-0.008772522
49	0xbe090b31	-0.13383175
50	0xbeb3c67a	-0.35112363
51	0x3baf9f9c	0.005359603
52	0xbdfe76ce	-0.12425004
53	0xbe5a03f9	-0.21290578
54	0xbe6c292f	-0.23062585
55	0xbe054f80	-0.13018608
56	0x3d94f11f	0.07272553
57	0x3d117fb1	0.035522167
58	0x3ddd87ef	0.10816943
59	0x3e2f60f6	0.17126831
60	0xbda4896a	-0.08034022
61	0xbddb73a8	-0.10715419
62	0xbe15f4d7	-0.1464418
63	0x3c9f1735	0.019420246
64	0xbe06d4f4	-0.13167173
65	0x3d54053b	0.0517628
66	0x3dad50a6	0.08462648
67	0xbcf85987	-0.030316127
68	0x3b3717d2	0.0027937782
69	0x3de8ad6b	0.11361202
70	0x3db527a2	0.0884545
71	0xbbb3bb01	-0.005484939
72	0x3d4f9f7e	0.050689213
73	0x3e1f816b	0.15576713
74	0xbd9d3d27	-0.076776795
75	0x3dac9076	0.08425991
76	0x3e4cb3ff	0.19990538
77	0xbda997af	-0.082808845
78	0xbe4821bc	-0.19544119
79	0xbe45ed97	-0.19328915
80	0xbdb63eef	-0.088987224
81	0xbd2609aa	-0.04053656
82	0x3e48ee97	0.19622265
83	0x3e4ca496	0.1998466
84	0x3ec1e916	0.37873143
85	0x3e36e78c	0.17861766
86	0xbf3c428e	-0.73539054
87	0x3eb1480a	0.34625274
88	0x3e676005	0.22595222
89	0xbe13409d	-0.14380117
90	0xbe2ef31c	-0.17084926
91	0xbd36030b	-0.044436496
92	0xbda4036a	-0.08008464
93	0x3db1b74a	0.08677538
94	0xbd266779	-0.040626023
95	0x3d79001c	0.06079112
96	0xbe068bae	-0.13139221
97	0xbd9382fd	-0.072027184
98	0x3c9c118e	0.01905134
99	0x3e06ceee	0.13164875
100	0x3afd8815	0.0019342924
101	0xbcdc6fe0	-0.026908815
102	0xbc93dded	-0.018050158
103	0xbc92449d	-0.017854983
104	0xbd828a99	-0.06374092
105	0xbe04dea9	-0.12975563
106	0xbd30c337	-0.04315492
107	0x3c5c7b47	0.013457126
108	0xbe08facd	-0.13376923
109	0x3ddf9fa1	0.10919119
110	0x3d458c11	0.04822928
111	0x3d71019b	0.05883942
112	0xbdacb884	-0.08433631
113	0xbe17064f	-0.147485
114	0xbdeccbb0	-0.11562288
115	0x3cf054c7	0.0293373
116	0x3cd00ff0	0.025398225
117	0x3de1199c	0.10991213
118	0x3e26d697	0.16292797
119	0x3cc012e0	0.0234465
120	0x3d7c45d9	0.06159005
121	0x3ddefc9a	0.10888024
122	0xbe80ab5a	-0.2513073
123	0xbdc911a3	-0.09817817
124	0x3e27d38e	0.16389295
125	0x3d11f52b	0.0356342
126	0xbe2c204a	-0.16809192
127	0x3d7319c8	0.05935076
128	0x3d3599ae	0.044336013
129	0xbdd653a4	-0.10465172
130	0xbb77e570	-0.0037825964
131	0xbdc02067	-0.0938118
132	0x3daee54b	0.08539828
133	0x3b8bcbf3	0.004266256
134	0x3e512806	0.20425424
135	0xbe15a514	-0.14613754
136	0xbb4edcd2	-0.0031564725
137	0x3e1a0998	0.15042722
138	0xbe1f906c	-0.15582436
139	0x3e5df80a	0.2167665
140	0xbe2624a6	-0.16224918
141	0x3dbf3366	0.09335975
142	0x3cb54085	0.022125492
143	0x3d9096ed	0.07060037
144	0xbd8e9511	-0.06962026
145	0xbc981591	-0.018564971
146	0xbcfb133a	-0.030648816
147	0x3d1c6f51	0.038192097
148	0xbd841f39	-0.06451268
149	0xbdb689d8	-0.0891301
150	0xbd99f548	-0.07517487
151	0xbe100cd0	-0.14067388
152	0x3ea05adf	0.3131933
153	0x3eb15cbc	0.34641063
154	0x3dd71e42	0.10503818
155	0x3e13cb00	0.14432907
156	0xbe38e891	-0.18057467
157	0xbea9ea2d	-0.33186474
158	0xbe725059	-0.23663463
159	0xbe2e4157	-0.17017113
160	0x3cc50aef	0.024053065
161	0xbd5786cb	-0.052618783
162	0x3d7049e1	0.058664206
163	0xbd21e1d3	-0.039522003
164	0x3cb7fedf	0.0224604
165	0xbd0fade6	-0.03507795
166	0x3e343341	0.17597677
167	0x3e071ccb	0.13194577
168	0xbd1ad6c0	-0.037802458
169	0x3e4c967e	0.19979283
170	0x3bf95a2e	0.007609627
171	0x3de01b56	0.10942714
172	0x3c38f961	0.011289925
173	0x3d182bd1	0.03715116
174	0x3dda07d5	0.10646025
175	0x3d6ce2e5	0.05783357
176	0x3e543298	0.20722425
177	0x3e173a65	0.1476837
178	0xbde89d13	-0.113580845
179	0x3d7c5c20	0.061611295
180	0xbcef92c3	-0.029244786
181	0x3e084787	0.13308536
182	0x3d124a5c	0.035715446
183	0x3e4ddd7c	0.20104021
184	0x3dbfefc3	0.09371903
185	0xbd5b8dcd	-0.05360203
186	0xbe195099	-0.14972152
187	0x3cdc5a3a	0.026898492
188	0xbe77d34f	-0.24201702
189	0xbd6707e1	-0.056404
190	0x3e0d9239	0.13825311
191	0x3e40536b	0.18781821
192	0x3e1fc251	0.1560147
193	0x3e7e20bb	0.24817173
194	0xbe7d92b0	-0.24762988
195	0x3e0d6de4	0.13811451
196	0x3dddeb10	0.1083585
197	0xbdc6b850	-0.097031236
198	0xbbe14f7b	-0.00687593
199	0xbda13182	-0.07870771
200	0xbe08cb9a	-0.13358918
201	0xbd70e8ce	-0.05881577
202	0x3e9b4f57	0.3033397
203	0xbdb77a1c	-0.089588374
204	0x3c927f55	0.017882982
205	0x3e3cfdd5	0.18456204
206	0xbd59ef89	-0.053206954
207	0x3e8aab20	0.27083683
208	0xbe2c4098	-0.16821516
209	0x3f1362e9	0.575728
210	0x3e2785e3	0.16359667
211	0x3b342fcb	0.0027494307
212	0x3d2eec4c	0.04270582
213	0xbdb97fcc	-0.090575784
214	0x3d9a9d9e	0.07549594
215	0xbd1f21ec	-0.03885071
216	0xbd851efa	-0.06500049
217	0x3e22f86e	0.15915081
218	0x3e55d189	0.20880713
219	0x3e5ef5ef	0.21773504
220	0x3e116e14	0.14202148
221	0xbdcc232d	-0.09967647
222	0xbd0864a4	-0.033299103
223	0xbe0455ae	-0.12923309
224	0xbd81568b	-0.06315335
225	0xbdb669d6	-0.08906905
226	0x3cdd82d1	0.027039917
227	0x3c44dcc4	0.012015525
228	0x3c5bd2a6	0.013416922
229	0xbded2d8a	-0.115809515
230	0xbe2b9fc8	-0.1676017
231	0x3d87e3df	0.0663526
232	0xbcb4f949	-0.022091525
233	0x3d9020f7	0.070375375
234	0x3dabd1d9	0.08389635
235	0x3c233750	0.009961918
236	0x3dae6e97	0.08517187
237	0xbe4a1f17	-0.19738422
238	0xbdaabe0e	-0.08337031
239	0xbe594d2e	-0.21220848
240	0xbd89e60f	-0.06733333
241	0x3e971f91	0.2951627
242	0x3edaf372	0.4276386
243	0x3ea43e60	0.32078838
244	0xbe0869ca	-0.13321605
245	0xbf212eb8	-0.6296191
246	0x3eaf477e	0.34234232
247	0x3d083db6	0.033261977
248	0xbe9478b3	-0.28998336
249	0xbe2d473d	-0.16921706
250	0xbcda84b0	-0.026674598
251	0x3e0abe1d	0.13549085
252	0x3cfa9ec2	0.03059328
253	0xbe74d960	-0.23911047
254	0xbe040199	-0.12891234
255	0x3bf039b2	0.0073310966

sequential/dense_1/MatMul f4 [30, 50]
0	0x3c1c5b07	0.009543187
1	0xbd7e8814	-0.062141493
2	0xbd484780	-0.048896313
3	0x3e7e3a80	0.24827003
4	0xbd76259f	-0.060094472
5	0x3e0cfdc9	0.13768686
6	0xbd75a8a2	-0.059975274
7	0xbd68f42c	-0.056873485
8	0xbdf1c573	-0.118052386
9	0xbde83160	-0.113375425
10	0x3e266dfb	0.16252892
11	0xbe3207ed	-0.17385836
12	0xbd8db4f9	-0.069192834
13	0xbe920b10	-0.28524065
14	0xbd237e14	-0.03991516
15	0xbe5e387a	-0.21701232
16	0xbc9ff534	-0.019526102
17	0xbe0a03a4	-0.13477951
18	0xbd281033	-0.041031074
19	0xbe51a140	-0.20471668
20	0x3e607b69	0.21922077
21	0xbcd11436	-0.025522333
22	0x3d887c40	0.06664324
23	0xbe127ba7	-0.14304982
24	0xbd8fe7da	-0.07026644
25	0xbcda1c6a	-0.026624877
26	0xbe439982	-0.19101527
27	0x3e0b96f2	0.136318
28	0x39a3f225	0.00031270194
29	0xbc2e2599	-0.010629081
30	0xbe0230b4	-0.12713891
31	0xbdc0d725	-0.094160356
32	0x3e700ba6	0.23441944
33	0xbdc5b85d	-0.09654305
34	0xbe168e57	-0.14702736
35	0xbd33310d	-0.04374795
36	0xbd474e7a	-0.048658825
37	0xbbc1056b	-0.0058905385
38	0xbdda0602	-0.10645677
39	0xbe0c2544	-0.1368609
40	0xbd4a9fbc	-0.04946874
41	0x3d35375e	0.044242255
42	0x3dfb9521	0.122843035
43	0x3e57ac10	0.2106173
44	0xbdb50247	-0.08838325
45	0xbcbda284	-0.023148783
46	0xbd34294f	-0.043984707
47	0x3d88393f	0.06651544
48	0x3d93cc1d	0.07216666
49	0x3da74a5b	0.08168479
50	0xbe2c6b78	-0.16837871
51	0xbdb8f603	-0.09031298
52	0x3e93a48d	0.2883648
53	0xbc97b730	-0.018519968
54	0x3dc932a5	0.09824113
55	0xbd92629b	-0.07147714
56	0x3d45bdfd	0.04827689
57	0x3dadd6c3	0.08488228
58	0xbe48c237	-0.19605337
59	0xbe27ba1e	-0.16379592
60	0x3d2f96f0	0.042868555
61	0xbe8025bd	-0.25028792
62	0xbe5eeb54	-0.21769458
63	0xbe59a9ca	-0.21256176
64	0xbde1962d	-0.11014972
65	0x3e4b265d	0.19838853
66	0xbc41e86d	-0.0118352
67	0xbd9638a4	-0.07335022
68	0xbc9e92b1	-0.019357057
69	0xbe812a70	-0.2522769
70	0xbe0bf992	-0.13669422
71	0x3e0b94d0	0.13630986
72	0xbb06fcd7	-0.0020597482
73	0xbe085414	-0.13313323
74	0xbd0ceb5b	-0.03440414
75	0xbeb78381	-0.35842517
76	0xbd95c43a	-0.07312818
77	0x3db880a0	0.09008908
78	0x3d825732	0.063642874
79	0x3d7fcd1c	0.062451467
80	0xbe0f0eb1	-0.13970448
81	0xbe51f6cc	-0.20504302
82	0x3c78d478	0.015187375
83	0xbe146790	-0.14492631
84	0x3da32994	0.07966915
85	0xbd9c8be6	-0.07643871
86	0xbcf8b4b6	-0.030359607
87	0x3e573013	0.21014433
88	0xbe32553b	-0.17415325
89	0x3dd452ee	0.1036738
90	0x3c32aabc	0.010904964
91	0x3e26ff8d	0.16308422
92	0x3e9bec58	0.30453753
93	0xbb526e9a	-0.003210938
94	0xbdf8f440	-0.12155962
95	0x3c517590	0.012784377
96	0x3cd26e07	0.02568723
97	0xbe068dcd	-0.1314003
98	0xbd9e8e6d	-0.07742009
99	0x3dc9c352	0.098517075
100	0x3c03cb1f	0.008044033
101	0xbdee1f5d	-0.11627076
102	0xbd036f22	-0.032088406
103	0x3ca77ce0	0.020445287
104	0xbd892255	-0.066960014
105	0xbe694d61	-0.22783424
106	0xbe050bfe	-0.12992856
107	0x3df5835a	0.11987944
108	0xbe2f8e49	-0.17144121
109	0xbe2ddc01	-0.16978456
110	0xbde0673e	-0.10957192
111	0x3e879deb	0.2648767
112	0xbe085fce	-0.13317797
113	0xbdc29104	-0.09500316
114	0xbe1af040	-0.1513071
115	0x3e1a8e73	0.15093403
116	0x3d33b2b4	0.043871596
117	0x3e004488	0.12526143
118	0x3d5900f5	0.05297943
119	0xbe571edf	-0.2100787
120	0xbe7420e2	-0.23840669
121	0xbe3e04de	-0.18556544
122	0x3d6ccde7	0.05781355
123	0xbcacca29	-0.021092491
124	0xbdfb83d6	-0.12281005
125	0xbea0558b	-0.31315264
126	0x3d53f7d4	0.05175002
127	0xbe0f3978	-0.13986766
128	0x3d1330a1	0.035935048
129	0x3d4c0dc2	0.049817808
130	0xbd475b1a	-0.048670866
131	0xbc1f5f1f	-0.0097272685
132	0xbe11ff53	-0.14257555
133	0xbd03a1d7	-0.032136764
134	0xbe8b5cd0	-0.27219248
135	0xbe89b7bc	-0.2689799
136	0xbbc8f6b9	-0.0061329273
137	0x3d7cea88	0.061747104
138	0xbc9d9067	-0.019233895
139	0xbe4cf8b2	-0.20016745
140	0xbce10d34	-0.027472116
141	0x3dfcd5ae	0.12345444
142	0x3e52abe6	0.20573387
143	0xbbe93a67	-0.007117558
144	0xbe3a2b6c	-0.18180627
145	0x3d809559	0.06278486
146	0xbcf62ee3	-0.030051654
147	0xbdf9f21b	-0.12204381
148	0x3a8c4179	0.0010700665
149	0x3d9aa39e	0.07550739
150	0xbe8d4000	-0.2758789
151	0x3c85bcb6	0.016325336
152	0x3d8a2b49	0.06746537
153	0x3d1b6e50	0.037947
154	0xbe6ffaa7	-0.2343546
155	0xbe0444cf	-0.12916873
156	0x3e1c0198	0.15234983
157	0xbe176679	-0.14785184
158	0x3e2c309d	0.1681542
159	0x3e39fac9	0.18162073
160	0x3e46de32	0.19420698
161	0x3e123f96	0.14282069
162	0x3ea5e064	0.3239776
163	0xbd764c1a	-0.06013117
164	0x3ddb61a2	0.10711981
165	0x3d3e8115	0.04650982
166	0x3e9ee1d7	0.31031677
167	0x3e025af8	0.12730014
168	0x3dffc85a	0.12489386
169	0x3ec36178	0.381603
170	0xbde76457	-0.11298435
171	0xbd6233b3	-0.055225085
172	0x3d8bbcdd	0.06823132
173	0x3e07598a	0.1321775
174	0xbc667eef	-0.014068349
175	0x3e0763f8	0.13221729
176	0x3e1decf5	0.15422423
177	0xbd7510f1	-0.05983061
178	0x3d706041	0.058685545
179	0xbe89f729	-0.2694638
180	0x3e92cc84	0.28671658
181	0x3bc01fcc	0.0058631655
182	0xbe8bea47	-0.27327177
183	0x3e14a36d	0.14515467
184	0x3daa8702	0.08326532
185	0x3dd8552a	0.10563119
186	0x3d6348ee	0.055489473
187	0x3e4b0334	0.1982544
188	0xbccabe20	-0.024748862
189	0x3d57ae3e	0.052656405
190	0xbc18f926	-0.009336745
191	0xbe1a245a	-0.1505293
192	0xbe857599	-0.26066282
193	0x3cc55fb4	0.024093486
194	0xbd98f114	-0.07467857
195	0x3e2f963a	0.1714715
196	0xbd27f9e4	-0.0410098
197	0x3dcd167f	0.100140564
198	0xbddd75ab	-0.10813459
199	0xbe86b487	-0.26309606
200	0x3d92b995	0.07164303
201	0x3cb27c88	0.021787897
202	0xbe279fb2	-0.16369513
203	0x3cef0a29	0.02917965
204	0x3cad8e6d	0.021186078
205	0x3e08fd62	0.13377908
206	0xbcf2d6c7	-0.02964343
207	0x3deadf17	0.11468332
208	0xbda8ce96	-0.08242528
209	0xbe37e802	-0.17959598
210	0x3d279f14	0.040923193
211	0x3da656a7	0.081219964
212	0xbe89b457	-0.268954
213	0xbd3e5dab	-0.046476047
214	0xbc80a9d4	-0.01570598
215	0x3d8ac14f	0.06775152
216	0xbd8e8478	-0.0695886
217	0xbe18a7d2	-0.14907768
218	0xba530131	-0.0008049189
219	0x3cabf5b7	0.02099119
220	0xbe001f7e	-0.12512013
221	0x3d6335f5	0.05547138
222	0x3daa0ea1	0.083035715
223	0xbdb2b85b	-0.08726569
224	0x3d40886d	0.047005106
225	0xbe1b81cc	-0.15186232
226	0x3e7f07ed	0.24905367
227	0x3dabbda9	0.08385784
228	0x3daeca4d	0.085346796
229	0xbd59156b	-0.05299894
230	0x3e0f1544	0.13972956
231	0x3e056424	0.13026482
232	0x3dc67937	0.09691089
233	0x3cc0550f	0.02347806
234	0xbca36103	-0.01994372
235	0x3d84a680	0.0647707
236	0xbda4f862	-0.08055188
237	0x3e032f9f	0.12811135
238	0xbe2ec82b	-0.17068546
239	0xbdff9b70	-0.12480819
240	0xbdee5794	-0.11637798
241	0x3e3215f5	0.17391188
242	0xbe2d7ce1	-0.16942169
243	0xbda33048	-0.07968193
244	0xbde34eb0	-0.11098993
245	0x3cd1e136	0.025620084
246	0x3e14cca7	0.14531194
247	0xbdb5fb27	-0.08885794
248	0x3de48e27	0.11159926
249	0x3ded6fb6	0.11593573
250	0xbda55802	-0.08073427
251	0x3dffdeb3	0.124936484
252	0x3dc8f651	0.09812606
253	0xb9ff5dc2	-0.00048707245
254	0xbca70637	-0.020388706
255	0xbe7ee800	-0.24893188

sequential/dense_2/MatMul f4 [12, 30]
0	0xbd048c95	-0.032360632
1	0xbdb4e059	-0.088318534
2	0x3b75e03c	0.0037517687
3	0x3db6de5b	0.0892913
4	0xb811c9f8	-3.4758792e-05
5	0xbd4d6856	-0.05014833
6	0xbd5b9e8c	-0.053618
7	0x3d5dccb4	0.0541503
8	0xbdf22827	-0.11824065
9	0xbcd198e7	-0.025585605
10	0xbc41cbc3	-0.011828366
11	0x3d4377f6	0.047721826
12	0x3ce52c30	0.027975172
13	0x3e4f26a5	0.20229585
14	0x3dfbff3b	0.12304541
15	0xbd888f2b	-0.06667932
16	0x3d2f4b72	0.04279656
17	0xbd8d60ec	-0.06903252
18	0x3decdbf3	0.115653895
19	0xbca7055b	-0.020388296
20	0x3daa2747	0.08308273
21	0x3d1f1eff	0.03884792
22	0xbcb9ccb7	-0.022680623
23	0x3da3baea	0.079946354
24	0x3cdd832e	0.02704009
25	0xbd2a0f03	-0.041518223
26	0x3ea03e8c	0.3129772
27	0xbbe9203c	-0.0071144383
28	0x3cb575b9	0.022150861
29	0x3daa9081	0.08328343
30	0xbd4b483f	-0.049629446
31	0x3d215c47	0.039394643
32	0x3e90661e	0.2820291
33	0xbc9c46a0	-0.019076645
34	0xbca4ed26	-0.020132612
35	0xbca2509b	-0.019813826
36	0xbc03790b	-0.008024464
37	0xbdd56a17	-0.10420626
38	0x3cfa71b7	0.030571802
39	0x3c8ddcde	0.017317232
40	0x3dd88f94	0.1057426
41	0xbd6688cb	-0.0562828
42	0x3cb3dbdd	0.021955425
43	0x3e2c80f9	0.16846074
44	0x3e492e93	0.19646673
45	0xbca2ebf1	-0.019887896
46	0xbb53021f	-0.003219731
47	0x3ddf61b9	0.10907311
48	0xbd299169	-0.04139844
49	0xbbd2a59a	-0.0064284327
50	0x3e048998	0.12943113
51	0x3d3d87ff	0.046272274
52	0xbd6036d3	-0.054739784
53	0xbb436018	-0.0029811915
54	0xbdb3f2e0	-0.08786559
55	0x3d1aaf6b	0.037764948
56	0x3e2200fe	0.15820691
57	0xbddbd7ca	-0.10734518
58	0x3ddad930	0.106859565
59	0x3e0f8e7b	0.14019196
60	0x3d7ac448	0.061222345
61	0x3e20ebf9	0.15715016
62	0x3d64c774	0.055854276
63	0xbd3ed8f9	-0.04659364
64	0x3d40ba6b	0.047052782
65	0x3bf1d059	0.0073795733
66	0x3c3a2770	0.011361942
67	0xbd902d6f	-0.07039916
68	0x3c60db46	0.013724154
69	0xbc10e619	-0.008843922
70	0xbd3e0fc3	-0.04640175
71	0xbcf90958	-0.030399963
72	0x3dabf3f4	0.0839614
73	0x3d88e9c1	0.0668521
74	0x3e4c86e1	0.19973327
75	0xbdc0d85a	-0.09416266
76	0xbd53afd5	-0.05168136
77	0xbc6a9da7	-0.014319814
78	0x3db07ee1	0.0861795
79	0x3d23deb7	0.04000732
80	0x3c3d5361	0.011555524
81	0xba16672e	-0.0005737421
82	0xbc3f69bc	-0.011682924
83	0x3cacec42	0.02110875
84	0xbd0e5cdd	-0.03475653
85	0xbd3ac983	-0.045602333
86	0x3da701c9	0.08154637
87	0xbd963570	-0.07334411
88	0x3e01be8a	0.12670341
89	0x3d9492de	0.07254575
90	0x3d468f45	0.048476476
91	0x3e2a4abc	0.16630071
92	0x3db42ddd	0.0879781
93	0xbd21fac1	-0.03954578
94	0x3c848e3d	0.016181106
95	0x3b2fab65	0.002680504
96	0x3d3a2ffa	0.04545591
97	0xbc056bc8	-0.008143373
98	0xbcaee1c9	-0.021347897
99	0xbcfa7acc	-0.030576132
100	0xbd1d2ed5	-0.03837474
101	0xbdb3a1a7	-0.08771067
102	0x3d212dc0	0.03935027
103	0x3cf8c0fc	0.03036546
104	0x3de4a0c2	0.111634746
105	0xbe1ce010	-0.15319848
106	0xbc901d9c	-0.017592244
107	0x3c531e72	0.012885677
108	0x3e53d328	0.20686018
109	0xbca5b962	-0.020229999
110	0x3c6e73f2	0.014554011
111	0xbcf0b0d7	-0.029381199
112	0xbd1bf4a7	-0.038075116
113	0xbc2e91ff	-0.010654925
114	0x3d861ef3	0.06548872
115	0xbb2ecd78	-0.0026672762
116	0xbcb5b1d6	-0.022179525
117	0x3c47bbcd	0.012190771
118	0x3de29d10	0.110651135
119	0x3d987475	0.074440874
120	0x3d586b8e	0.052836947
121	0x3dd0d321	0.1019652
122	0xbcda8a8e	-0.026677396
123	0xbd62835a	-0.055301048
124	0xbd75b495	-0.05998667
125	0x3d3a3665	0.04546203
126	0x3e10bf17	0.14135395
127	0x3db825da	0.089915946
128	0x3d8bc347	0.068243556
129	0x3c3b0be8	0.011416413
130	0x3cb57bf7	0.022153838
131	0xbd59a669	-0.053137217
132	0xbd93f504	-0.072244674
133	0xbd494b98	-0.049144357
134	0x3dc2fd74	0.095209986
135	0xbe7e403d	-0.24829192
136	0x3d945e57	0.072445564
137	0xbd9c2079	-0.07623381
138	0x3d5aa83a	0.05338309
139	0xbcb17b2b	-0.021665176
140	0x3c99d5f6	0.018778782
141	0xbd88bbe8	-0.06676465
142	0x3bb6b648	0.005575929
143	0x3dacdd75	0.08440677
144	0x3d2b73fc	0.04185866
145	0x3cb205da	0.021731306
146	0x3c350052	0.01104744
147	0x3dc23d11	0.09484304
148	0x3de2866a	0.11060794
149	0x3da67d9c	0.08129427
150	0x3cded04f	0.027198939
151	0x3d9bc12b	0.07605203
152	0x3d91b5e6	0.071147725
153	0xbcf97d71	-0.030455323
154	0x3d186c86	0.03721287
155	0xbcdf3926	-0.02724893
156	0x3dc712ee	0.097204074
157	0x3d3695b2	0.044576354
158	0xbb707fcd	-0.003669727
159	0x3ce54646	0.02798761
160	0x3ce6cd56	0.028174084
161	0x3d564674	0.052313283
162	0xbdf0e4ee	-0.11762415
163	0xbdabaa61	-0.083821066
164	0x3c2a81c7	0.010406918
165	0xbe52c904	-0.20584494
166	0x3dcc1525	0.099649705
167	0xbcc282ee	-0.023744073
168	0x3e480f82	0.19537166
169	0xbc773b02	-0.015089752
170	0xbda28fe8	-0.07937604
171	0xbde10276	-0.109867975
172	0x3cf4c30b	0.02987816
173	0x3d090a51	0.033457104
174	0x3bf28c4f	0.00740198
175	0xbc689d2b	-0.014197628
176	0xbccd7877	-0.025081856
177	0xbc7f1db0	-0.015571043
178	0x3d2dabac	0.042400047
179	0x3d9b4899	0.07582206
180	0xbc96bd3e	-0.018400785
181	0x3d83bf74	0.06433001
182	0x3d8bc760	0.06825137
183	0xbdcf766a	-0.101300076
184	0xbceb8bab	-0.028753122
185	0xbd7882e8	-0.060671717
186	0x3d7e3d81	0.062070373
187	0xbd65edf2	-0.056135125
188	0x3c720d49	0.014773675
189	0x3d67d255	0.056597073
190	0xbda3cd06	-0.079980895
191	0x3c0fead5	0.008784016
192	0xbcb2530d	-0.021768117
193	0xbe7d441f	-0.24733017
194	0x3d90a7c1	0.070632465
195	0xbe47d4eb	-0.19514816
196	0x3d56a0f9	0.05239961
197	0xbe000c20	-0.12504625
198	0xbc16daff	-0.009207486
199	0x3c248961	0.010042519
200	0xbd8beedc	-0.06832668
201	0xbdbf90c2	-0.09353782
202	0x3d066848	0.032814294
203	0x3ca56f48	0.020194665
204	0xbce45a36	-0.027875047
205	0x3c091471	0.00836669
206	0x3dbcfa06	0.09227376
207	0xbdfbcabf	-0.1229453
208	0xbc910ec4	-0.017707236
209	0xbcca9e7a	-0.02473377
210	0xbda0618e	-0.07831107
211	0x3d804946	0.06263976
212	0xbcd9c6c9	-0.026584046
213	0xbd338153	-0.043824505
214	0xb90b475d	-0.00013282658
215	0xbc74a88d	-0.014932764
216	0x3c0deeda	0.008662904
217	0xbd1eb132	-0.038743205
218	0xbd1f43ee	-0.038883142
219	0x3d509d33	0.050931167
220	0x3dc063a8	0.09394008
221	0x399d9a4f	0.00030060342
222	0xbc22b061	-0.009929747
223	0xbe11e9ad	-0.14249296
224	0x3e5eb07e	0.21747014
225	0xbe194f4d	-0.14971657
226	0x3c94eaae	0.01817831
227	0xbdb2291f	-0.086992495
228	0x3d2d0fac	0.042251274
229	0x3b88761c	0.0041644704
230	0xbcfeff4a	-0.03112759
231	0xbb1deef6	-0.002409873
232	0x3d3adcba	0.045620658
233	0x3e02029b	0.12696306
234	0x3d93fc85	0.07225899
235	0xbc801bb0	-0.015638202
236	0xbd5e0081	-0.0541997
237	0xbd40dd30	-0.04708594
238	0xbd1db2fc	-0.03850077
239	0x3c95ca58	0.018284962
240	0x3d23f4ec	0.040028498
241	0x3d20c3de	0.039249294
242	0xbb9e66c7	-0.0048340294
243	0x3d18a93f	0.03727078
244	0x3d11f20e	0.035631232
245	0xbd784906	-0.060616516
246	0x3d66d9f6	0.056360207
247	0x3db1d07f	0.086823456
248	0xbbe4a5a6	-0.0069777546
249	0xbd80ba35	-0.06285516
250	0x3d514a85	0.051096458
251	0xbce14a2f	-0.027501194
252	0x3d0aad63	0.03385676
253	0xbe085ec3	-0.13317399
254	0x3deb8ab6	0.115010664
255	0xbe290a61	-0.16507865
