predictor/src/androidTest/resources/glucose_model.tflite (tflite, 164148 bytes, 5 tensors)

sequential_5/dense_11/MatMul;sequential_5/dense_11/BiasAdd f4 [12]
000000 5e 2c f2 42 c7 ed f1 42 75 38 f1 42 4d 34 f0 42
       121.086655 120.96441 120.61027 120.10215
000010 00 81 ef 42 d3 cd ee 42 3d 1f ee 42 2b bb ed 42
       119.75195 119.402 119.06101 118.86556
000020 1e 0a ed 42 59 7d ec 42 4b 37 ec 42 1d e1 eb 42
       118.51976 118.24482 118.107994 117.939674

sequential_5/normalization_7/truediv;sequential_5/normalization_7/Sqrt f4 [1, 255]
000000 cb a8 14 3e d2 c4 c5 3c c0 90 c5 3c be 62 c5 3c
       0.14517514 0.024141703 0.024116874 0.024094936
000010 c8 33 c5 3c ae 06 c5 3c 66 0c c5 3c 95 64 c5 3c
       0.024072543 0.024051037 0.024053764 0.024095813
000020 15 f2 c5 3c 03 7e c6 3c ec cb c6 3c 74 c8 c6 3c
       0.024163285 0.024230009 0.02426716 0.024265505
000030 7e 98 c6 3c 93 62 c6 3c 6a 38 c6 3c 9e 0b c6 3c
       0.024242636 0.024216926 0.024196822 0.024175461
000040 4b d7 c5 3c a9 ad c5 3c f5 b3 c5 3c 99 08 c6 3c
       0.024150511 0.02413066 0.024133662 0.024174022
000050 b4 8e c6 3c d2 0e c7 3c 13 4d c7 3c 63 36 c7 3c
       0.024237968 0.024299059 0.024328744 0.024317926
000060 57 ee c6 3c 8f 49 69 3f c4 9d 68 3f 3a 8c 68 3f
       0.024283571 0.91127867 0.9086573 0.9083897
000070 fc 0a 69 3f e6 60 6b 3f 44 44 6e 3f 76 b6 6e 3f
       0.91032386 0.9194473 0.93072915 0.93247163
000080 86 d3 6b 3f b2 42 69 3f 11 a5 67 3f 3a c4 67 3f
       0.92119634 0.91117394 0.90486246 0.9053379
000090 d5 fd 68 3f b8 84 69 3f aa 64 69 3f 05 b2 68 3f
       0.91012317 0.9121814 0.91169226 0.90896636
0000a0 35 18 69 3f cc 5a 6b 3f 06 28 6e 3f 32 c0 6e 3f
       0.9105256 0.9193542 0.9302982 0.93262017
0000b0 b8 e0 6b 3f 98 4d 69 3f 7a 90 67 3f 36 a4 67 3f
       0.9213977 0.91134024 0.9045483 0.9048494
0000c0 ad aa 68 3f 5f 3c 2a 41 7f de 27 41 5d f1 2d 41
       0.9088543 10.639739 10.49182 10.871427
0000d0 5f 84 2d 41 b8 2b 2f 41 43 48 30 41 8a 2e 2e 41
       10.844817 10.9481735 11.017642 10.886362
0000e0 04 7e 2e 41 16 bf 30 41 90 24 32 41 81 bf 31 41
       10.905766 11.046652 11.133926 11.109254
0000f0 f5 f7 2f 41 8e a4 2e 41 58 7e 2e 41 87 ea 30 41
       10.998036 10.9151745 10.905846 11.057258
000100 a4 6e 30 41 a1 d8 2f 41 80 d9 30 41 cb a3 2e 41
       11.027012 10.990388 11.053101 10.9149885
000110 c2 32 2f 41 d4 5c 31 41 c6 60 32 41 6a 2c 32 41
       10.949892 11.085163 11.148626 11.135843
000120 f7 53 30 41 96 19 de 3f e3 46 d9 3f 74 a2 d7 3f
       11.020499 1.7351558 1.6974758 1.6846452
000130 aa fa de 3f 1e 7c e0 3f 4e 0f db 3f 40 0e dd 3f
       1.7420247 1.7537878 1.7114046 1.7269974
000140 60 44 de 3f 8f 36 d5 3f 6b 51 e5 3f 19 3b dc 3f
       1.7364616 1.6657275 1.7915472 1.7205535
000150 04 aa d9 3f 07 96 df 3f 74 04 d7 3f 52 06 d7 3f
       1.700501 1.746766 1.6798234 1.6798804
000160 b2 40 e0 3f 44 4a e1 3f a4 37 d9 3f ba b4 de 3f
       1.7519743 1.7600789 1.6970105 1.7398903
000170 66 35 dc 3f 3a 21 d4 3f 8a 6c e3 3f 42 71 dc 3f
       1.7203796 1.657264 1.7767498 1.7222064
000180 2e 2d d9 3f ce 41 de 3f 62 f6 d5 3f 8c 52 d5 3f
       1.6966913 1.7363832 1.6715815 1.6665816
000190 51 88 e0 3f 0d a5 df 3f eb 40 d9 3f cc 81 df 3f
       1.75416 1.7472245 1.6972936 1.7461486
0001a0 3c 32 db 3f 31 5b d4 3f b1 f5 e2 3f af c4 da 3f
       1.7124705 1.659033 1.7731229 1.7091273
0001b0 54 f3 d8 3f 8f ce 01 41 b1 ca 01 41 20 c8 01 41
       1.6949258 8.112929 8.111985 8.111359
0001c0 b1 bb 01 41 25 b2 01 41 64 a7 01 41 98 9b 01 41
       8.108323 8.105992 8.103367 8.100487
0001d0 62 8e 01 41 0c 83 01 41 e4 80 01 41 be 8a 01 41
       8.097261 8.094494 8.093967 8.096373
0001e0 2b 94 01 41 a4 9b 01 41 3c 9a 01 41 37 9c 01 41
       8.098674 8.100498 8.100155 8.100638
0001f0 90 93 01 41 01 8d 01 41 49 84 01 41 4b 7b 01 41
       8.098526 8.096925 8.094796 8.092601
000200 a6 71 01 41 70 6b 01 41 34 6d 01 41 f2 78 01 41
       8.090246 8.08873 8.089161 8.092028
000210 ba 83 01 41 70 8d 01 41 6f 8e 01 41 20 91 01 41
       8.09466 8.097031 8.097274 8.097931
000220 89 87 01 41 2a 7f 01 41 27 75 01 41 35 6a 01 41
       8.09559 8.093546 8.091102 8.088429
000230 6b 5d 01 41 f3 52 01 41 24 50 01 41 1d 58 01 41
       8.085307 8.082751 8.082066 8.084012
000240 51 5f 01 41 20 4b 1a 3e 9f 35 11 3e 98 f8 17 3e
       8.085771 0.1506772 0.14180611 0.14840925
000250 cf e9 18 3e b3 45 15 3e 63 07 10 3e 7b fc 12 3e
       0.14932941 0.1457737 0.14065318 0.14354126
000260 67 a2 17 3e ac da 10 3e 0e df 17 3e 16 2b 17 3e
       0.14808045 0.14145917 0.14831182 0.1476253
000270 c4 e6 16 3e 18 38 1b 3e 6f 80 0f 3e e2 f3 18 3e
       0.14736468 0.15158117 0.14013837 0.14936784
000280 0a cc 19 3e 06 7b 15 3e 94 ca 0e 3e 18 35 14 3e
       0.15019241 0.14597711 0.13944465 0.14473379
000290 3e ed 16 3e 2c 9a 0f 3e df 58 17 3e f0 61 17 3e
       0.14738938 0.14023656 0.14779995 0.14783454
0002a0 82 ae 15 3e 47 4a 1a 3e 0f 07 0f 3e c0 87 17 3e
       0.1461735 0.15067397 0.13967536 0.14797878
0002b0 08 80 19 3e 4b dc 14 3e 3f 51 0e 3e be 85 16 3e
       0.14990246 0.1453716 0.1389818 0.14699456
0002c0 36 41 16 3e 23 8c 10 3e 87 ab 17 3e 42 71 15 3e
       0.14673313 0.14115958 0.14811526 0.14593986
0002d0 fa 14 13 3e 0d d4 68 3d 85 7b 68 3d d0 42 68 3d
       0.1436347 0.056842852 0.056758422 0.056704342
0002e0 76 32 68 3d 61 4d 68 3d 8c 7c 68 3d 2e 99 68 3d
       0.05668875 0.05671442 0.056759402 0.05678671
0002f0 ce a2 68 3d 30 ad 68 3d 7f ac 68 3d 63 84 68 3d
       0.056795888 0.05680579 0.05680513 0.05676688
000300 fb 34 68 3d 29 ce 67 3d a0 6e 67 3d 36 3c 67 3d
       0.05669115 0.056593094 0.056501985 0.056453906
000310 54 3d 67 3d 59 73 67 3d 00 c3 67 3d d2 fe 67 3d
       0.05645497 0.05650649 0.05658245 0.0566395
000320 bf 25 68 3d c6 4f 68 3d 53 70 68 3d a8 65 68 3d
       0.056676622 0.056716703 0.056747746 0.056737572
000330 42 2e 68 3d 5b d6 67 3d 97 75 67 3d ce 31 67 3d
       0.05668474 0.05660091 0.056508627 0.05644398
000340 c9 1a 67 3d e4 38 67 3d 32 73 67 3d 69 9a 67 3d
       0.05642203 0.05645074 0.056506343 0.05654374
000350 ef aa 67 3d 48 be 67 3d 46 cb 67 3d 9a b7 67 3d
       0.0565595 0.05657795 0.05659034 0.05657158
000360 7b 8a 67 3d 30 30 59 3d 48 24 59 3d 24 c1 58 3d
       0.05652855 0.05302447 0.053013116 0.05291857
000370 a2 da 58 3d 1e c8 5a 3d cd 37 5b 3d 7c 0e 5b 3d
       0.05294288 0.053413503 0.053520013 0.05348061
000380 2d 11 5b 3d 58 1e 5a 3d 8f 7e 5a 3d 43 7f 5a 3d
       0.053483177 0.053251594 0.053343352 0.053344022
000390 bb 86 59 3d 12 54 59 3d e6 32 59 3d d0 da 58 3d
       0.053107005 0.05305869 0.053027056 0.05294305
0003a0 3c 0b 59 3d 05 fc 5a 3d 13 60 5b 3d 9c 07 5b 3d
       0.05298923 0.053463 0.05355842 0.053474054
0003b0 a6 f5 5a 3d 86 23 5a 3d 24 8a 5a 3d d4 6a 5a 3d
       0.053456925 0.053256534 0.053354397 0.053324535
0003c0 3e 78 59 3d 73 43 59 3d 01 2a 59 3d 0e b8 58 3d
       0.053093188 0.05304284 0.053018574 0.052909903
0003d0 dd e6 58 3d ff 9e 5a 3d ac 0e 5b 3d 2f ca 5a 3d
       0.052954543 0.053374287 0.05348079 0.053415474
0003e0 27 ab 5a 3d 4e e6 59 3d bf 68 5a 3d 7a 4e 5a 3d
       0.05338588 0.05319815 0.05332255 0.053297497
0003f0 bb 86 59 3d 24 d2 b8 3d da b3 73 3d
       0.053107005 0.09024456 0.05949769

Const_1 f4 [1, 255]
000000 c6 c7 36 41 9f cb f2 42 e4 c3 f2 42 6b c3 f2 42
       11.423773 121.3977 121.3826 121.381676
000010 2a c6 f2 42 f9 cb f2 42 39 d5 f2 42 9b de f2 42
       121.38704 121.398384 121.41645 121.43478
000020 e1 e2 f2 42 97 dd f2 42 20 cc f2 42 93 b3 f2 42
       121.44312 121.43279 121.39868 121.35073
000030 41 9d f2 42 dc 8b f2 42 9e 80 f2 42 50 7a f2 42
       121.30714 121.27316 121.251205 121.23889
000040 fe 76 f2 42 ed 77 f2 42 16 80 f2 42 65 8c f2 42
       121.23241 121.23423 121.25017 121.27421
000050 13 96 f2 42 29 97 f2 42 2a 8d f2 42 f7 7b f2 42
       121.29311 121.295235 121.27571 121.24212
000060 bb 6b f2 42 33 d6 c7 bb 9e 3b 45 bb 54 55 4d b9
       121.21041 -0.0060985326 -0.003009535 -0.0001958211
000070 d9 de 8c 3a 6f 26 14 3b a2 66 6d 3b 1d a1 70 3b
       0.0010747566 0.0022605916 0.0036224504 0.0036717125
000080 9e de d9 3a 0a 3b 07 bb 4e 2e df bb a9 ac 1d bc
       0.0016622131 -0.0020634555 -0.00681094 -0.009623685
000090 8c e0 0e bc 62 de dd bb 69 10 90 bb 0a 69 21 bb
       -0.008720528 -0.006770895 -0.0043964875 -0.0024629259
0000a0 7e 84 a9 ba 88 68 c1 39 ba d2 50 3b d5 b9 9d 3b
       -0.0012933163 0.0003688971 0.0031863884 0.0048134127
0000b0 95 6f 77 3b 62 19 dd 39 72 e2 7f bb 04 3e dc bb
       0.0037755717 0.00042171316 -0.0039044884 -0.00672126
0000c0 ee ed cf bb 70 b9 28 3a d5 f3 21 3a 11 85 13 3a
       -0.006345502 0.0006436324 0.00061779964 0.00056274334
0000d0 c6 3a 85 39 f2 af 78 39 01 cd 8e 39 b5 4f 25 37
       0.00025411526 0.00023716668 0.0002723709 9.853325e-06
0000e0 0d b6 d2 b9 1f 55 43 ba 9a e7 78 ba 25 78 13 ba
       -0.0004018996 -0.00074513437 -0.00094949605 -0.0005625508
0000f0 45 68 3d 39 f6 6e cc 39 93 f9 f8 39 a3 bf ca 39
       0.00018063288 0.00038992584 0.00047488193 0.00038671223
000100 2e 49 75 39 ab 4b ae 39 a1 b7 13 3a 10 9b aa 39
       0.00023392282 0.00033244243 0.0005634968 0.00032540457
000110 88 a6 59 b9 c5 d6 2f ba 45 d1 62 ba 07 ae 13 ba
       -0.0002075677 -0.00067077234 -0.00086523994 -0.0005633537
000120 bc 99 9d 38 c6 db 31 3e 12 d4 33 3e 68 c4 34 3e
       7.514979e-05 0.17368993 0.17561367 0.17653048
000130 94 89 30 3e b7 08 32 3e 4c c6 34 3e 0c 24 33 3e
       0.17239982 0.17386137 0.17653769 0.1749422
000140 8e 70 36 3e 79 d6 3a 3e 42 99 31 3e 58 37 36 3e
       0.17816374 0.18245877 0.1734362 0.1779455
000150 65 60 35 3e 6e 59 31 3e af 12 34 3e 15 0a 34 3e
       0.17712553 0.17319271 0.17585252 0.17581971
000160 08 03 2f 3e 41 d5 30 3e b1 7c 35 3e 61 5b 32 3e
       0.17091 0.1726885 0.17723347 0.17417671
000170 be 3e 37 3e 83 71 3b 3e 99 8d 32 3e 0e 11 36 3e
       0.17895028 0.1830502 0.17436828 0.17779943
000180 81 9f 35 3e e7 ae 32 3e 5e af 34 3e e2 8d 34 3e
       0.17736627 0.17449532 0.17645022 0.17632249
000190 50 97 2e 3e 2b 50 31 3e 92 59 35 3e c5 45 32 3e
       0.17049909 0.17315738 0.1770995 0.17409427
0001a0 4a 69 37 3e 47 9d 3a 3e fc 89 32 3e 23 61 36 3e
       0.17911258 0.18224059 0.1743545 0.17810492
0001b0 6e 80 35 3e c9 b3 33 3e b0 bb 33 3e 25 c3 33 3e
       0.17724773 0.17549051 0.17552066 0.1755491
0001c0 9b cb 33 3e 65 d1 33 3e 67 d0 33 3e 1b cf 33 3e
       0.17558138 0.17560346 0.17559968 0.17559473
0001d0 2d cf 33 3e cd d0 33 3e 47 da 33 3e 49 e6 33 3e
       0.175595 0.1756012 0.17563735 0.17568316
0001e0 b9 ef 33 3e 24 fc 33 3e 1b 03 34 3e 05 09 34 3e
       0.17571916 0.17576653 0.1757931 0.17581566
0001f0 2f 0f 34 3e fc 0f 34 3e f2 07 34 3e fc fe 33 3e
       0.17583917 0.17584223 0.17581156 0.17577738
000200 7a f7 33 3e 45 f3 33 3e b3 f9 33 3e 62 04 34 3e
       0.17574874 0.17573269 0.17575721 0.17579797
000210 a5 0c 34 3e 4d 18 34 3e 28 20 34 3e c1 28 34 3e
       0.17582949 0.17587395 0.17590392 0.17593671
000220 10 32 34 3e f0 34 34 3e f3 2d 34 3e 93 26 34 3e
       0.17597222 0.17598319 0.17595653 0.1759284
000230 48 20 34 3e 7f 1c 34 3e 1c 22 34 3e a6 2a 34 3e
       0.1759044 0.17588995 0.17591137 0.17594394
000240 3c 31 34 3e f9 4c 38 3f d7 e2 51 3f 33 9f 41 3f
       0.17596906 0.7199245 0.81986755 0.75633544
000250 d1 3d 3e 3f b1 20 40 3f a4 94 4b 3f d1 7c 4a 3f
       0.74313074 0.75049883 0.7952368 0.79096705
000260 e1 41 3d 3f 8e 9a 4d 3f 00 43 43 3f 93 d6 44 3f
       0.7392865 0.80313957 0.7627411 0.76889914
000270 71 88 42 3f c3 fa 36 3f 8c 93 55 3f cc b4 3e 3f
       0.75989443 0.7147638 0.83428264 0.74494624
000280 fd 76 3c 3f 60 2c 40 3f 69 45 4f 3f 39 36 49 3f
       0.7361906 0.7506771 0.80965286 0.7859836
000290 bb 71 3f 3f d3 28 52 3f f9 14 44 3f 9a 1c 45 3f
       0.74782914 0.8209354 0.765945 0.7699677
0002a0 91 15 45 3f 41 13 39 3f 7a 88 56 3f 8f 93 41 3f
       0.7698603 0.72295004 0.83801997 0.7561578
0002b0 e8 8e 3d 3f 92 7e 41 3f 9b ba 50 3f 7a ee 45 3f
       0.7404618 0.75583756 0.8153474 0.7731701
0002c0 3f fe 40 3f 4b 79 50 3f 13 b7 42 3f 40 cd 48 3f
       0.7538795 0.8143508 0.760606 0.78438187
0002d0 48 c6 48 3f e0 d5 11 41 d1 e9 11 41 55 f8 11 41
       0.78427553 9.114716 9.119584 9.123128
0002e0 19 fe 11 41 b2 03 12 41 3a 12 12 41 d9 22 12 41
       9.124536 9.125902 9.12945 9.133508
0002f0 ee 2b 12 41 20 34 12 41 df 43 12 41 c1 5f 12 41
       9.135725 9.137726 9.14157 9.148377
000300 97 84 12 41 c3 ad 12 41 64 cc 12 41 e6 de 12 41
       9.157371 9.167422 9.1749 9.179419
000310 e8 e1 12 41 83 e0 12 41 d2 e4 12 41 13 e5 12 41
       9.180153 9.179812 9.180864 9.180926
000320 b7 d7 12 41 95 c8 12 41 ae c5 12 41 24 d5 12 41
       9.177665 9.17397 9.173262 9.177036
000330 47 f7 12 41 8c 29 13 41 89 58 13 41 5c 7e 13 41
       9.18537 9.197643 9.209115 9.218349
000340 a8 95 13 41 3a a7 13 41 fe bc 13 41 00 cd 13 41
       9.224037 9.228327 9.233641 9.237549
000350 bf cc 13 41 e7 c6 13 41 b2 c6 13 41 15 cf 13 41
       9.237487 9.23606 9.23601 9.238057
000360 f3 e0 13 41 18 5a 7c 42 c3 b0 7b 42 c5 57 7b 42
       9.242419 63.087982 62.92262 62.835712
000370 02 3e 7b 42 5b 17 7b 42 41 34 7b 42 2a e7 7b 42
       62.810555 62.772808 62.80103 62.975746
000380 ea a0 7b 42 c1 57 7b 42 c9 58 7b 42 13 99 7b 42
       62.907143 62.835697 62.836704 62.899487
000390 f2 1c 7c 42 98 70 7c 42 3b ca 7b 42 c0 6b 7b 42
       63.028267 63.109955 62.94749 62.855225
0003a0 5a 4d 7b 42 80 2c 7b 42 a7 44 7b 42 72 03 7c 42
       62.82554 62.793457 62.817043 63.003365
0003b0 e9 c3 7b 42 93 71 7b 42 fd 6a 7b 42 7f aa 7b 42
       62.94132 62.860912 62.85448 62.9165
0003c0 27 2e 7c 42 7c 84 7c 42 46 d2 7b 42 86 7b 7b 42
       63.04507 63.12938 62.955345 62.87063
0003d0 fb 66 7b 42 be 4f 7b 42 68 67 7b 42 34 20 7c 42
       62.850567 62.827873 62.850983 63.03145
0003e0 fd dd 7b 42 f4 89 7b 42 37 88 7b 42 68 bc 7b 42
       62.966785 62.88472 62.883022 62.93399
0003f0 75 2f 7c 42 d4 2f c0 40 2b 96 3e 41
       63.046345 6.0058384 11.911662

sequential_5/dense_10/MatMul1 f4 [150, 255]
000000 01 9b a2 bd bd 00 2f 3d b2 a8 66 bd c3 03 ef 3d
       -0.07939721 0.042725313 -0.056313224 0.11670639
000010 ff 5c 99 bd 16 6d 62 bd 1b df a7 bd c8 32 bb 3d
       -0.07488441 -0.055279814 -0.08196851 0.09140545
000020 6b 40 6b 3d 17 48 22 3d 46 a4 32 3d 9a f9 e0 ba
       0.05743448 0.03961953 0.043613695 -0.0017164231
000030 ea dd c5 3d 79 1b 9a bd ba e6 3f 3c 0d 32 2b bd
       0.096614674 -0.07524771 0.011712724 -0.04179578
000040 71 40 3b bd cd 79 08 bd 0b d6 0e 3e e1 eb a0 bd
       -0.045715753 -0.033319283 0.13948838 -0.0785749
000050 29 90 64 3d 9b 9d 26 bd f0 c3 03 3e 5a bd 3d 3c
       0.055801544 -0.040677648 0.12867713 0.011580789
000060 d8 9f 6c 3d 77 8a a1 bd 41 e4 fb bc 04 3c c5 bd
       0.057769626 -0.07887738 -0.030748488 -0.09630588
000070 ca 60 88 bd 35 05 1f 3c d7 07 0f bd 91 b3 b5 bd
       -0.06659086 0.009705831 -0.034919586 -0.0887214
000080 76 ee 27 bd 4f 16 ec 3d 25 eb 29 bc 32 28 c8 bd
       -0.0409989 0.115276925 -0.010371004 -0.09773292
000090 e9 97 bc 3d a3 d0 cb bd 32 00 85 3d b0 d3 0c 3e
       0.09208662 -0.09951904 0.06494178 0.13752627
0000a0 4a 1a 00 bd 33 f2 04 3e b0 14 a6 3d 0a d0 50 bd
       -0.03127507 0.12983017 0.081094146 -0.05097965
0000b0 fc 10 83 bd b6 2f d5 3d ec fc f7 bc 30 93 05 3e
       -0.06399724 0.10409491 -0.03027197 0.13044429
0000c0 10 6c 69 bb 38 4c 7c bc e2 80 b6 bd 18 ec 5e 3c
       -0.0035617389 -0.015399031 -0.08911301 0.013606094
0000d0 3a 81 7c bd c8 2a f3 3d 23 8f a1 3d 11 a7 38 bd
       -0.061646678 0.11873394 0.07888629 -0.045081202
0000e0 6b 47 02 3e 05 9d 93 3d 4a 13 8b bd 67 fa b3 bd
       0.12722556 0.072076835 -0.067907885 -0.08787995
0000f0 e1 ec b0 3d aa 70 b5 bd 33 e1 2a bd 7e 14 d6 3d
       0.08638931 -0.088593796 -0.041718673 0.10453127
000100 de 45 ad bd cd c4 e1 bc 3d 74 c7 bc 59 49 f9 3d
       -0.08460592 -0.027559662 -0.024347419 0.12172193
000110 5a 69 d8 3d 34 68 8a bd df 5a ec 3d 54 d5 b7 bd
       0.10566969 -0.067581564 0.1154077 -0.08976236
000120 0f f2 9a bd 49 e6 5b 3d 21 c3 39 3d 59 cb 52 bd
       -0.075657 0.053686414 0.045352105 -0.05146346
000130 e3 4d c5 bd c1 fb 4a bd 6e d4 99 3d c7 ea 5f bd
       -0.09633996 -0.049556497 0.07511221 -0.05466726
000140 a0 10 cd 3d 82 ea ce bd da ea 51 bd 23 4b 7d bc
       0.100129366 -0.101033226 -0.051249363 -0.0154598085
000150 76 61 25 bc a9 75 0c bd 8c 47 eb 3d 34 53 d2 3d
       -0.010094037 -0.034291897 0.11488256 0.10269776
000160 76 93 ee 3d 2c 68 c0 bd ec 10 c2 bd 11 d8 d9 bd
       0.1164922 -0.09394869 -0.09475884 -0.106369145
000170 88 ad 4e 3d 0f 72 b3 bb 35 4b e4 bd 3b 24 e3 bd
       0.05045846 -0.0054762433 -0.11147157 -0.11090895
000180 a2 38 8b 3c 07 45 c6 bd c7 20 eb bd dd 26 83 bd
       0.016994778 -0.09681135 -0.11480861 -0.06403897
000190 57 c3 bc bc 31 e9 e8 3d 4c 18 2d 3e 26 bf 98 3d
       -0.023042364 0.11372603 0.169038 0.07458334
0001a0 80 08 3e 3d c4 d4 23 3e c3 8f 0b 3c 6b 22 b3 3b
       0.046394825 0.15999132 0.008518162 0.0054667494
0001b0 a9 13 96 bc 33 ad fe 3d e3 ca 2c 3c 0f b8 85 bb
       -0.018319922 0.12435379 0.010546419 -0.0040807794
0001c0 7c 29 b4 bd 67 9c ad 3c 5a 2f dd 3c 1f d1 0d bb
       -0.08796975 0.021192743 0.027000118 -0.0021639538
0001d0 96 b9 a1 3d 46 4c e4 3d ae 4a 6e 3c 23 dc d8 3d
       0.07896726 0.111473605 0.014544172 0.10588863
0001e0 a5 85 31 3d 37 d5 0b 3d d4 51 c5 bd 37 7e ab 3d
       0.043340344 0.034138884 -0.09634748 0.08373683
0001f0 94 62 d1 3d 58 4e 54 bc 79 c3 77 bd a7 13 84 bd
       0.102238804 -0.012958132 -0.06048915 -0.06449061
000200 04 97 f1 bd 08 16 bb bd ac 72 e4 bb 51 22 57 3d
       -0.11796382 -0.091350615 -0.0069716778 0.05252296
000210 3f b1 ea 3c dc a8 9b bc 01 c0 00 bb c2 df a2 3d
       0.02864897 -0.019001417 -0.0019645693 0.07952835
000220 6f 38 8b bd 8d f2 13 3d 71 90 8a bd 8b 45 e3 3d
       -0.06797873 0.036119986 -0.06765831 0.11097249
000230 59 3e 60 3d fa 93 83 bd 09 cc fd 3d f6 1f 8d bd
       0.05474696 -0.06424709 0.12392432 -0.06890862
000240 eb 55 1b 3e db 4b b6 3d 34 17 c4 bc 39 62 ad 3d
       0.15169494 0.08901187 -0.023936845 0.08466
000250 82 a1 76 3b b0 90 01 3d c3 87 44 bd 16 4a a9 3d
       0.0037632887 0.031632125 -0.047981035 0.08266084
000260 0c 91 db 3d 00 67 4c bd c4 3d b5 bd 3b 13 e6 3d
       0.10721025 -0.049902916 -0.088496715 0.11234137
000270 92 22 d6 bd 0d 37 e9 3d 6a e8 dc 3d 25 8d a2 bc
       -0.104558125 0.11387453 0.10786517 -0.019842694
000280 db 53 89 bd fe a0 bc 3d e7 3d 8d 3d d9 54 93 3d
       -0.06705447 0.09210394 0.068965726 0.07193918
000290 5f dd e5 3d 95 5f 64 bd 37 45 54 bd 77 5e 27 3b
       0.11223864 -0.055755217 -0.05182382 0.0025538483
0002a0 1e 9f a9 bc 59 41 81 3d c1 1b 22 bc ae 99 ea bd
       -0.020705756 0.06311292 -0.009894312 -0.11455093
0002b0 be 80 3f 3c 55 6c 8e 3d 48 6b e4 bd 1a 79 0d 3d
       0.011688409 0.069542564 -0.11153275 0.03453932
0002c0 8a f6 35 3b 20 b9 04 be b8 7e f0 bd 3f d9 40 bd
       0.0027765357 -0.12961245 -0.1174292 -0.047082182
0002d0 ea a6 ca bd 0b 9d 2d bc 30 5d 9e 3d 6a 8a 41 bc
       -0.098951176 -0.010596524 0.07732618 -0.011812786
0002e0 86 51 a0 bc a8 a2 bd bd f5 8b e6 3c 2a 2f 0c bd
       -0.019570123 -0.0925954 0.028142909 -0.034224667
0002f0 1b fd 3d 3d 08 9f b2 bd f0 ce 93 3d d2 bd ac 3d
       0.04638396 -0.08721739 0.072172046 0.08434643
000300 67 4d cc bc be cb e3 bd ce 72 61 bd ef 5e a1 bd
       -0.024939252 -0.11122845 -0.055041127 -0.07879435
000310 7d 20 c5 bc 54 35 b4 bd 03 92 77 ba ab d1 31 bc
       -0.024063343 -0.08799234 -0.00094440597 -0.010853211
000320 aa e8 2d bd b8 54 af 3c bf 04 03 bd 70 fd 6a 3c
       -0.042458214 0.021402702 -0.031986948 0.014342651
000330 18 ba 54 3c a5 a2 07 bd e4 00 26 bd 80 44 fc 3c
       0.012983821 -0.033114094 -0.040528193 0.030794382
000340 57 91 96 3d b4 c5 dd bd d0 94 c0 bd 09 d5 a0 3d
       0.0735194 -0.108287245 -0.09403384 0.07853133
000350 52 b6 ba 3c 28 21 53 3d 5c 08 ab 3d fe 83 65 3d
       0.022792015 0.051545292 0.08351204 0.05603408
000360 06 93 46 3d a4 e6 81 bc c1 84 77 bd 22 31 cb 3c
       0.048480056 -0.015857048 -0.06042934 0.024803702
000370 fd 78 07 3d ab f0 f7 3d e5 0c 18 3d a8 1a 30 3d
       0.033074368 0.12106451 0.037121672 0.04299417
000380 56 bd 15 3d 2b f3 73 bd 82 56 fe bd 51 04 8e bd
       0.036557518 -0.059558075 -0.12418844 -0.06934417
000390 37 10 27 3d a9 9d 5a bd f0 5f 55 bd ea 54 83 bd
       0.040786948 -0.053373013 -0.052093446 -0.064126804
0003a0 50 46 a0 3c 6a 38 61 bd 3c 16 45 3d 8a e8 ba 3d
       0.019564778 -0.05498544 0.048116907 0.091263846
0003b0 ce f5 99 3d e4 86 5a 3d ff ac 81 bd a7 f4 d4 3d
       0.07517587 0.053351298 -0.063318245 0.10398226
0003c0 c1 a3 31 bd b0 1e b8 bd a2 25 ce 3c f6 cd 19 bd
       -0.04336906 -0.08990228 0.02516443 -0.037549935
0003d0 98 82 84 3d 7e 5d 9d bd d3 e4 9d 3d 26 ed c4 3d
       0.06470221 -0.07683848 0.077096604 0.09615545
0003e0 33 28 ad bc 7f 3b 91 3d 1a 55 0c 3d 08 c6 98 bc
       -0.021137333 0.07091426 0.034260847 -0.018649116
0003f0 99 df 37 bc 72 bb 4b bd e5 7f 8a 3d a6 fc a8 bd
       -0.011222743 -0.04973931 0.06762675 -0.08251314

sequential_5/dense_11/MatMul f4 [12, 150]
000000 28 ea 64 3f 22 f9 70 bf d8 ca 0a 3f 85 21 a2 bf
       0.89419794 -0.94130147 0.54215765 -1.2666479
000010 9d 3c 95 bf 41 ca 9c 3f 01 14 d6 3e c2 64 06 3f
       -1.1659123 1.2249223 0.41812137 0.52497494
000020 ee 14 87 bf 6e bf 9b 3f 57 e3 4f bf 03 da 85 3f
       -1.0553262 1.2167795 -0.8120627 1.0457157
000030 19 41 84 bf 76 98 24 bf ad df 94 bf 89 f7 6f 3e
       -1.0332366 -0.64295137 -1.163076 0.23434271
000040 9d 3f 4c 3f 9f ac 84 be d7 ca 3d bf 39 11 13 3f
       0.79784566 -0.2591295 -0.74137634 0.57448155
000050 29 4d 59 bf b9 a5 7f 3f dc dd 0a bf 36 3d f0 be
       -0.8488336 0.9986225 -0.5424478 -0.469217
000060 40 d3 16 bf ca e6 b9 3d c7 02 00 bf dd 30 8b 3f
       -0.5891609 0.09077223 -0.5000424 1.0874287
000070 6d 95 91 be 7a 03 4b bf 88 1b 79 3f f9 8f 2c bf
       -0.28434315 -0.7930218 0.97307634 -0.67407185
000080 4f e2 c2 be 07 65 37 bf 3a 2f cc bd 1e 66 51 bf
       -0.38063285 -0.7163853 -0.09969945 -0.81796443
000090 91 f2 6b bf 0c a0 de be 65 9b 2e bf a0 58 3a bf
       -0.92167 -0.4348148 -0.68205863 -0.7279148
0000a0 4c 5a ac bf 77 a7 d4 3e fe 75 3b bf de bf 0c 3f
       -1.3465056 0.41534016 -0.73226917 0.54980266
0000b0 7e ee 2e bf 7f 2d 84 bf db 1e 83 3e 78 54 3e bf
       -0.6833266 -1.0326384 0.25609478 -0.7434764
0000c0 b6 68 9d 3f 9f 18 f0 be ab bd 76 3f 7f a9 ed be
       1.229758 -0.46893784 0.9638316 -0.46418378
0000d0 89 32 34 bf 1e 33 a1 be bb e5 69 bf cb 5c 39 3d
       -0.7038961 -0.31484312 -0.91366166 0.04525451
0000e0 82 bb 3a bf 2d e9 25 3f d2 af 0e bf 24 70 19 3f
       -0.72942364 0.64808923 -0.5573703 0.5993674
0000f0 49 a4 1d bf b3 18 fc 3e 5b c6 4a 3f 51 70 01 bf
       -0.61578804 0.49237594 0.79208916 -0.50562006
000100 10 a9 12 be 74 35 b5 3e 8a 8e 5a 3f 0c f6 d9 be
       -0.14322305 0.35392344 0.8537375 -0.4257053
000110 a9 e4 3e 3f a0 f0 13 3f 75 f1 88 bf 64 71 7b 3f
       0.7456766 0.5778904 -1.0698687 0.98219895
000120 77 75 43 3f 88 20 4b be 05 06 3d 3f 31 45 d7 be
       0.7635111 -0.19836628 0.7383731 -0.42044976
000130 f4 04 82 bf c0 b2 d9 be ff f4 d0 3e 42 ea 04 bd
       -1.0157762 -0.42519188 0.40811917 -0.03244997
000140 14 40 2d 3f 83 70 c8 3e 58 53 f9 be 07 52 a4 be
       0.676759 0.3914834 -0.486964 -0.32093832
000150 3a b4 5c bf 88 94 06 3f c3 a8 a7 be 39 e7 1b bf
       -0.86212504 0.5257039 -0.32745942 -0.6089969
000160 54 02 ab be 00 f9 8c 3e b2 7e ac be f7 5a b2 3e
       -0.33400214 0.27533722 -0.3369041 0.34835026
000170 fb 36 9b bf 03 3c de be 0c 4b 73 3f 0f 0d 4e bf
       -1.2126154 -0.4340516 0.9503639 -0.80488676
000180 d7 ea 49 bf 0c 5c 44 3f 62 54 29 bf 5f bd 1b bf
       -0.7887396 0.7670295 -0.6614438 -0.6083583
000190 5d ff 5e be 2e bf 80 bf 2b d1 3d 3e fa a3 ff be
       -0.21777101 -1.0058343 0.18536822 -0.49929792
0001a0 0c a7 8e 3e 76 b1 b3 be 56 22 da be fc 6e 9d 3f
       0.27861822 -0.3509633 -0.4260432 1.2299495
0001b0 63 83 6d 3f a2 8f fa 3e 36 29 42 bf 6c 0b 78 be
       0.92778605 0.48937708 -0.7584413 -0.24223107
0001c0 10 f2 45 bf 64 dd 33 bf 04 e4 5d 3f d0 70 8e be
       -0.77322483 -0.7025969 0.8667605 -0.27820444
0001d0 61 8e 6d bd 41 d2 b1 3e 39 7d 6c be 8e f8 87 bf
       -0.05799711 0.34730724 -0.23094644 -1.0622728
0001e0 49 42 08 3f 74 7b 3a 3f 3c 14 2a bf 85 e1 0a bf
       0.53226143 0.72844625 -0.66437125 -0.54250365
0001f0 fe 8b 43 3f 54 42 96 bf 06 ef 56 3f 39 2d f5 bd
       0.76385486 -1.1738992 0.8395847 -0.11971516
000200 b8 bb cc be 02 ff 83 3f 9a 72 7e bf 30 f1 9b bf
       -0.39986968 1.0312197 -0.9939362 -1.218298
000210 0c b4 a0 3e a4 d0 3e bf d8 e0 83 3f 33 fe 58 3f
       0.31387365 -0.7453711 1.0302992 0.8476288
000220 72 de 9b 3f 5c ec eb 3e 34 cd 83 3f 2f d2 6e 3f
       1.217726 0.46078765 1.0296998 0.93289465
000230 23 5b 71 bf e7 36 5f 3f 8c 96 95 3f 16 f4 21 3f
       -0.9427969 0.8719315 1.1686568 0.6326307
000240 02 cc 57 3f a9 85 88 3f 31 18 1f 3f 8f ea 36 3f
       0.84295666 1.066579 0.6214629 0.7145166
000250 5b aa 67 3f 60 77 79 3f 38 3f f4 3e d2 7e 44 bf
       0.90494317 0.97447777 0.47704482 -0.7675601
000260 6b ed 0e 3f 38 1c 83 bf 30 3c 80 bf f9 d7 81 3f
       0.5583102 -1.0242987 -1.0018368 1.0144035
000270 3e e1 0e 3f 0d 57 34 3f 60 60 83 bf 21 28 8b 3f
       0.5581244 0.7044533 -1.0263786 1.0871621
000280 1a b5 4d bf ac 1d 77 3f 8c 4a 26 bf b7 fb 5a bf
       -0.80354464 0.9652965 -0.649575 -0.85540336
000290 0e a8 64 bf 04 7b 63 3e e3 1f 2b 3f f1 f8 07 bf
       -0.8931893 0.22214895 0.6684553 -0.5311423
0002a0 6b 70 28 bf 88 63 8a 3e 8b 40 3e bf 03 44 59 3f
       -0.65796536 0.2702906 -0.74317235 0.848694
0002b0 3b a4 15 bf bf 64 0e bf c9 23 6f bf 7e e1 46 3e
       -0.5845372 -0.55622476 -0.9341398 0.19421956
0002c0 6b 37 3f bf ba 84 77 3f 70 98 12 bf 9a 29 45 bf
       -0.74693936 0.966869 -0.5726385 -0.77016604
0002d0 87 03 44 3f a8 f4 0d bf 4a 12 c7 be 6f a7 3a bf
       0.7656788 -0.5545144 -0.3888114 -0.72911733
0002e0 4f a8 8f be ea 3e 32 bf 5f 6e 78 bf d8 0e 5a bf
       -0.28058097 -0.6962725 -0.9704341 -0.851789
0002f0 0d 1a 55 bf d6 be cb be 39 19 80 bf 5c 67 c4 3e
       -0.83242875 -0.39794034 -1.0007697 0.38360107
000300 d8 15 85 bf d5 66 6f 3f e5 8d 92 be 84 f8 77 bf
       -1.0397291 0.93516284 -0.28623882 -0.9686358
000310 3b 8f f6 3e 80 ed 21 bf c1 51 7d 3f d1 e5 e7 be
       0.4815615 -0.6325302 0.9895287 -0.45292524
000320 ca 58 4f 3f 69 1d 30 bf 16 69 0e bf 06 2c 23 bf
       0.80994856 -0.68794876 -0.556291 -0.6373905
000330 4a 05 62 bf da dd 4f be e2 53 86 bf 31 ee a8 3e
       -0.8828932 -0.20299473 -1.0494349 0.32994226
000340 f2 37 99 be e0 b1 11 3f 0a 0d 02 bf 16 1f 28 3f
       -0.29925495 0.5691204 -0.50801146 0.65672433
000350 59 c0 4a 3f b4 e2 51 bf e8 5f 18 bf 3a 8f 22 3f
       0.7919975 -0.81986547 -0.5952134 0.63499796
000360 72 56 31 3f dc 9b fe be 57 08 1d 3f 59 3c 1e 3f
       0.6927253 -0.49728286 0.6134085 0.61810833
000370 58 04 82 bf 5c cd 84 3f 0f 25 08 3f 01 e0 01 bf
       -1.0157576 1.0375171 0.53181547 -0.5073243
000380 05 c1 46 3f 34 f8 aa be 33 55 23 bf f0 ae bd be
       0.77638274 -0.3339249 -0.6380188 -0.3704753
000390 e3 c9 01 3f 75 6b 9f 3e 41 7c 1b 3f 78 f1 18 3f
       0.5069868 0.3113667 0.6073647 0.5974345
0003a0 dd b4 54 bf ae 9a 0e bf 7e 97 6b bf ec b1 34 3f
       -0.83088475 -0.5570477 -0.92028034 0.7058399
0003b0 b9 45 a4 be 9c 59 1d bf b0 0d e0 be 70 88 0a 3f
       -0.32084444 -0.6146486 -0.43760443 0.5411444
0003c0 70 10 41 bf b5 e3 38 3f f3 44 a1 bf 4c ef 04 bf
       -0.75415707 0.72222453 -1.2599167 -0.5192764
0003d0 92 11 26 3f 6d 43 1b bf 19 b6 0e bf f0 12 0e 3f
       0.6487056 -0.6064976 -0.5574661 0.55497646
0003e0 19 79 56 bf 49 ce 29 bf 7b 24 0d bf 9c cf 29 bf
       -0.8377853 -0.6633039 -0.5513379 -0.6633241
0003f0 43 cb eb 3d 64 35 24 bf 7a 9c a9 3e a8 8c 91 be
       0.115133785 -0.6414397 0.33127195 -0.28427625
