predictor/src/androidTest/resources/glucose_model.tflite (tflite, 238632 bytes, 10 tensors)

model_1/Conv_1/conv1d_transpose f4 [5, 1, 36, 5]
-0.06297639 -0.00549545 -0.068992086 0.002645475 -0.0033359467 -0.052058376 0.06106978 0.13963702
0.105872564 0.007064199 0.1110218 0.040550306 -0.097177856 -0.16646783 0.04971469 0.008464283
-0.04457049 -0.011344655 0.078851014 -0.05901266 -0.04419505 0.040768497 0.07344141 -0.02440055
-0.041200466 0.06175059 -0.042297993 -0.021366723 -0.07820014 0.06878747 -0.14049174 0.07778733
0.11557033 0.10877788 -0.04554508 0.16466288 -0.049079232 -0.11500414 -0.027656907 0.032667313
-0.05570251 0.02587182 -0.075884685 -0.052658446 -0.011307864 0.027909443 -0.009746297 0.0026326072
0.058715567 -0.024150826 -0.07271823 -0.036649805 0.05063993 0.0843824 -0.034240473 0.080671184
0.07347095 0.08131866 -0.056722812 0.06621318 -0.030000282 -0.050672237 0.041473787 -0.10681082
0.0023874494 0.060327493 -0.020601284 -0.086951494 -0.04930633 -0.03485232 -0.09158284 0.027627777
-0.027009733 0.16411375 0.015887171 0.08404667 -0.045726918 -0.18622468 0.038811184 0.041010704
-0.10769864 0.030695578 0.14765677 -0.08155501 -0.075124696 0.0858984 -0.043739196 0.08662086
-0.015957154 -0.03136742 -0.08720393 0.041085918 -0.005321601 0.0048370278 0.0442905 0.07780293
0.003870004 -0.0768484 0.104943946 0.049842644 -0.07116119 -0.051788066 -0.06373581 -0.09379998
-0.048838787 0.007331918 0.08906063 0.11059221 -0.0057042935 0.016154544 -0.03930212 -0.0348838
-0.052615903 0.048315126 0.0031430111 -0.008043881 0.04108727 -0.019866703 -0.018188315 -0.04000384
0.115485586 0.020373777 -0.066799246 -0.013984484 -0.006270515 -0.066522636 -0.045447208 0.14074084
-0.011498193 -0.03757521 0.07232394 0.07518933 0.18910414 0.0041715773 0.0902347 0.050978538
-0.09832554 0.11350303 -0.0030089177 -0.016524047 -0.12113338 0.07613668 -0.29727736 0.005840468
0.067455746 0.092418455 -0.09997836 -0.11999533 -0.022992587 -0.053938333 -0.108605094 0.09815641
-0.0027346085 -0.015628282 0.05777456 0.13337387 -0.04207386 0.16482837 -0.03923183 -0.048203744
-0.15861464 -0.0026189634 -0.2148105 0.15080655 0.0023389475 0.06842211 0.0055519966 -0.17110088
0.0768002 -0.008645828 0.065496035 0.035092525 0.1813552 -0.1007254 0.0067328177 -0.07084364
-0.08092008 0.13046744 -0.040273383 -0.03967784 -0.10710994 0.008356466 0.08153249 0.004602235
-0.014450202 0.027397184 0.049946543 -0.15809119 -0.008810635 0.016904993 0.0076067923 0.044174757
0.08085224 -0.034312047 -0.04375247 0.121085145 -0.0008087749 0.07220649 -0.009401711 0.04342716
0.05850157 -0.071817845 -0.070378296 0.10921246 -0.021632073 -0.13891034 0.0335558 -0.0063586794
-0.033111054 -0.008444401 0.23903042 -0.052438572 -0.036100008 -0.05509698 -0.005982467 -0.21688934
-0.08733754 -0.13769908 0.061141696 0.023848627 0.006444526 0.065308064 0.09199415 0.03279757
0.056109305 0.056281395 -0.0674192 0.14486226 -0.10795269 0.0140859615 -0.055762358 -0.012046325
0.040992767 -0.10667365 0.007327713 -0.02947865 0.019592356 -0.12698238 0.08463134 -0.10854809
-0.078768514 -0.02034853 0.102438115 0.11701783 0.044340532 0.053871017 0.10715549 -0.049844194
-0.06616628 0.008542078 -0.020312436 -0.05056381 -0.111407064 0.056611616 -0.011937501 0.052066818
00000000: c4f9 80bd 2d13 b4bb b94b 8dbd b55f 2d3b
00000010: e69f 5abb 2a3b 55bd 4e24 7a3d 02fd 0e3e
00000020: b7d3 d83d cc7a e73b 665f e33d 1418 263d
00000030: 2f05 c7bd 8b76 2abe a1a1 4b3d c7ad 0a3c
00000040: 8c8f 36bd efde 39bc a47c a13d 42b7 71bd
00000050: de05 35bd defc 263d 7368 963d aae3 c7bc
00000060: d2c1 28bd 30ee 7c3d a940 2dbd 4409 afbc
00000070: 6527 a0bd 72e0 8c3d 11dd 0fbe f74e 9f3d
00000080: 23b0 ec3d f0c6 de3d 7a8d 3abd 639d 283e
00000090: 4e07 49bd 4a87 ebbd bd90 e2bc 29ce 053d
000000a0: 5128 64bd 24f1 d33c 6e69 9bbd 62b0 57bd
000000b0: 9f44 39bc 58a2 e43c efae 1fbc d287 2c3b
000000c0: bc7f 703d f4d7 c5bc 4ced 94bd 1b1e 16bd
000000d0: d16b 4f3d aed0 ac3d bd3f 0cbd ef36 a53d
000000e0: f077 963d 668a a63d 2e56 68bd c79a 873d
000000f0: 27c3 f5bc b18d 4fbd 6be0 293d a2bf dabd
00000100: c176 1c3b f619 773d 06c4 a8bc a013 b2bd
00000110: 6ff5 49bd 4ec1 0ebd c98f bbbd a653 e23c
00000120: 8443 ddbc 6f0d 283e d025 823c a920 ac3d
00000130: 264c 3bbd afb1 3ebe 7af8 1e3d d7fa 273d
00000140: 1b91 dcbd 4b75 fb3c 5633 173e 5006 a7bd
00000150: fada 99bd 80eb af3d df27 33bd 4766 b13d
00000160: 94b8 82bc 207b 00bd f997 b2bd b549 283d
00000170: d360 aebb ee7f 9e3b f569 353d 2457 9f3d
00000180: e59f 7d3b b262 9dbd daec d63d cd27 4c3d
00000190: f5bc 91bd b91f 54bd ec87 82bd 341a c0bd
000001a0: 2e0b 48bd 9640 f03b 6b65 b63d 2b7e e23d
000001b0: 15eb babb 8956 843c 43fb 20bd 51e2 0ebd
000001c0: c683 57bd 15e6 453d fafa 4d3b 7bca 03bc
000001d0: 204b 283d 7fbf a2bc a9ff 94bc 11db 23bd
000001e0: b583 ec3d e8e6 a63c 0bce 88bd 2d1f 65bc
000001f0: e478 cdbb 053d 88bd da26 3abd 5e1e 103e
00000200: eb62 3cbc 77e8 19bd 931e 943d ddfc 993d
00000210: 84a4 413e bab1 883b f8cc b83d dfce 503d
00000220: e75e c9bd 4774 e83d 4331 45bb 705d 87bc
00000230: c714 f8bd 8ced 9b3d bd34 98be 6661 bf3b
00000240: 3d26 8a3d e345 bd3d 74c1 ccbd 1dc0 f5bd
00000250: f35a bcbc 71ee 5cbd 596c debd 3a06 c93d
00000260: 1e37 33bb e206 80bc 04a5 6c3d 2993 083e
00000270: a455 2cbd c5c8 283e 8eb1 20bd 4a71 45bd
00000280: e06b 22be eaa2 2bbb 49f7 5bbe 086d 1a3e
00000290: 0749 193b e420 8c3d 86ed b53b 1235 2fbe
000002a0: 6c49 9d3d 3ba7 0dbc c922 863d 2ebd 0f3d
000002b0: 2db5 393e 1e49 cebd f89e dc3b 7816 91bd
000002c0: 6db9 a5bd 4299 053e b4f5 24bd 3b85 22bd
000002d0: 755c dbbd 8fe9 083c 82fa a63d 58ce 963b
000002e0: 8ac0 6cbc 0f70 e03c bf94 4c3d a8e2 21be
000002f0: 7b5a 10bc 577c 8a3c 6642 f93b 97f0 343d
00000300: dc95 a53d ca8a 0cbd ca35 33bd 7dfb f73d
00000310: f703 54ba ffe0 933d a209 1abc ade0 313d
00000320: 589f 6f3d 3c15 93bd 7f22 90bd c8aa df3d
00000330: bf35 b1bc 833e 0ebe ce71 093d 785c d0bb
00000340: 759f 07bd 635a 0abc 64c4 743e d4c9 56bd
00000350: 9add 13bd 5fad 61bd 9208 c4bb 3d18 5ebe
00000360: 06de b2bd fd00 0dbe b76f 7a3d 325e c33c
00000370: 9a2c d33b 3cc0 853d 6e67 bc3d bf56 063d
00000380: dfd2 653d 5287 663d 1413 8abd c656 143e
00000390: 4d16 ddbd cec8 663c 1267 64bd f35d 45bc
000003a0: 08e8 273d b777 dabd 501d f03b 367d f1bc
000003b0: 2680 a03c ab07 02be 3253 ad3d 764e debd
000003c0: 6351 a1bd f6b1 a6bc 13cb d13d 0ba7 ef3d
000003d0: 6b9e 353d dba7 5c3d 5674 db3d 6d29 4cbd
000003e0: 3082 87bd 12f4 0b3c 4466 a6bc ff1b 4fbd
000003f0: 6329 e4bd 95e1 673d 8295 43bc 0444 553d

model_1/normalization_1/truediv;model_1/normalization_1/Maximum f4 [1, 183]
0.14635979 0.8669494 0.87449014 0.8711152 0.8690872 0.87018204 0.8770298 0.8782267
0.8741632 0.8702177 0.87882346 0.8900948 0.89228016 0.8932714 0.8930264 0.90205556
0.9069324 0.91378874 0.9226992 0.9168026 0.9003659 0.8880814 0.89445597 0.90756136
0.9158045 1e+07 1e+07 1e+07 1e+07 1e+07 1e+07 1e+07
1e+07 1e+07 1e+07 1e+07 1e+07 10.350867 10.2230215 10.367529
10.482443 10.359832 10.059412 10.064849 10.237624 10.4081135 10.430386 10.438615
10.497944 10.438343 10.589096 10.391808 10.517684 10.643526 10.606756 10.71655
10.768944 10.833708 10.75391 10.834611 10.742401 1e+07 1e+07 1e+07
1e+07 1e+07 1e+07 1e+07 1e+07 1e+07 1e+07 1e+07
1e+07 0.56725806 0.5689436 0.5707029 0.5724092 0.5739124 0.57509196 0.5756349
0.5752925 0.5739756 0.57168025 0.5686168 0.5654404 0.5626738 0.5606411 0.5594292
0.5588027 0.55856 0.55851036 0.55848396 0.55838805 0.558045 0.55760175 0.55726486
0.55730355 0.5576601 0.558127 0.5584356 0.55844384 0.55832475 0.558265 0.55851024
0.5590536 0.55992186 0.5610444 0.56224394 0.5634352 0.05529392 0.055059604 0.05491688
0.054857127 0.054875076 0.05489639 0.05477635 0.054445263 0.053981237 0.05351379 0.053151783
0.0529429 0.05287348 0.05287516 0.052861877 0.05281281 0.052809924 0.05294248 0.05324655
0.05370263 0.054267716 0.054865487 0.055411678 0.055816665 0.056001965 0.056044422 0.056144457
0.05636137 0.056619957 0.056813 0.056858286 0.0567618 0.056553494 0.056246173 0.055853914
0.055453036 0.053735364 0.053690504 0.05318424 0.053134937 0.05349651 0.053121753 0.052899763
0.05246611 0.0523505 0.05215088 0.051947072 0.05156058 0.051125485 0.050947104 0.050764903
0.05077779 0.051214054 0.05141951 0.051603206 0.05201224 0.051973604 0.052224725 0.05213079
0.052178547 0.052368708 0.0522061 0.052492067 0.052858107 0.053396538 0.05382574 0.05393315
0.054022033 0.053667642 0.053795353 0.05410373 0.053885553 0.09070703 0.05951009
00000000: 57df 153e 65f0 5d3f 96de 5f3f 6801 5f3f
00000010: 807c 5e3f 40c4 5e3f 0685 603f 77d3 603f
00000020: 29c9 5f3f 96c6 5e3f 93fa 603f 41dd 633f
00000030: 796c 643f 6fad 643f 619d 643f 1ded 663f
00000040: b92c 683f 0fee 693f 0436 6c3f 93b3 6a3f
00000050: 617e 663f 4d59 633f 11fb 643f f155 683f
00000060: 2a72 6a3f 8096 184b 8096 184b 8096 184b
00000070: 8096 184b 8096 184b 8096 184b 8096 184b
00000080: 8096 184b 8096 184b 8096 184b 8096 184b
00000090: 8096 184b 279d 2541 7f91 2341 66e1 2541
000000a0: 16b8 2741 dfc1 2541 5af3 2041 9f09 2141
000000b0: 4fcd 2341 a287 2641 dce2 2641 9104 2741
000000c0: 94f7 2741 7403 2741 f06c 2941 d844 2641
000000d0: 6f48 2841 e24b 2a41 46b5 2941 fd76 2b41
000000e0: 984d 2c41 de56 2d41 0410 2c41 915a 2d41
000000f0: e0e0 2b41 8096 184b 8096 184b 8096 184b
00000100: 8096 184b 8096 184b 8096 184b 8096 184b
00000110: 8096 184b 8096 184b 8096 184b 8096 184b
00000120: 8096 184b d337 113f 4aa6 113f 9619 123f
00000130: 6989 123f eceb 123f 3a39 133f cf5c 133f
00000140: 5f46 133f 11f0 123f a359 123f df90 113f
00000150: b4c0 103f 640b 103f 2d86 0f3f c136 0f3f
00000160: b20d 0f3f cafd 0e3f 89fa 0e3f cef8 0e3f
00000170: 85f2 0e3f 0adc 0e3f fdbe 0e3f e9a8 0e3f
00000180: 72ab 0e3f d0c2 0e3f 69e1 0e3f a3f5 0e3f
00000190: 2df6 0e3f 5fee 0e3f 74ea 0e3f 87fa 0e3f
000001a0: 231e 0f3f 0a57 0f3f 9ba0 0f3f 38ef 0f3f
000001b0: 4a3d 103f e17b 623d 2e86 613d 86f0 603d
000001c0: deb1 603d b0c4 603d 09db 603d 2a5d 603d
000001d0: ff01 5f3d 6e1b 5d3d 4731 5b3d afb5 593d
000001e0: a8da 583d dd91 583d a093 583d b285 583d
000001f0: 3f52 583d 384f 583d 37da 583d 0e19 5a3d
00000200: 4af7 5b3d d347 5e3d a2ba 603d 5bf7 623d
00000210: 04a0 643d 5162 653d d68e 653d bbf7 653d
00000220: 2edb 663d 54ea 673d c0b4 683d 3ce4 683d
00000230: 107f 683d a3a4 673d 6362 663d 13c7 643d
00000240: b922 633d 9d19 5c3d 93ea 5b3d b8d7 593d
00000250: 05a4 593d 281f 5b3d 3296 593d 6cad 583d
00000260: b4e6 563d 7a6d 563d 299c 553d 74c6 543d
00000270: 3031 533d f568 513d e9ad 503d dcee 4f3d
00000280: 5ffc 4f3d d4c5 513d 449d 523d e25d 533d
00000290: c90a 553d 46e2 543d 98e9 553d 1887 553d
000002a0: 2cb9 553d 9280 563d 10d6 553d ec01 573d
000002b0: be81 583d 54b6 5a3d 6178 5c3d 02e9 5c3d
000002c0: 3546 5d3d 9ad2 5b3d 8458 5c3d df9b 5d3d
000002d0: 19b7 5c3d 9bc4 b93d dac0 733d

Const_1 f4 [1, 183]
11.185065 0.015321049 0.021526525 0.028458932 0.036987565 0.03258864 0.027245428 0.030528883
0.030448427 0.023575868 0.009725223 -0.0059062988 -0.017607462 -0.029507449 -0.039817058 -0.038845096
-0.03160587 -0.02737306 -0.026063975 -0.02320754 -0.022093374 -0.023757871 -0.014889442 -0.008399234
-0.005910955 0.0 0.0 0.0 0.0 0.0 0.0 0.0
0.0 0.0 0.0 0.0 0.0 0.002057443 0.0013137899 0.0015461037
0.00041296973 -0.00097421324 -0.00020597619 0.0003203019 -0.0006953031 -0.002072321 -0.002948217 -0.002733269
-0.0023601155 -0.00222096 -0.000933767 0.0008211179 0.0011472062 0.0005541898 0.00041655035 0.00039705995
-5.503252e-05 0.0007203941 0.0015358634 0.000897848 0.0010384603 0.0 0.0 0.0
0.0 0.0 0.0 0.0 0.0 0.0 0.0 0.0
0.0 1.8107171 1.808004 1.8062209 1.8058376 1.8072206 1.8105013 1.8159279
1.8231446 1.8314701 1.8404789 1.84938 1.8574581 1.8644809 1.8705285 1.8761281
1.8809395 1.8847991 1.8873938 1.8883775 1.8876894 1.8851808 1.8810943 1.8761194
1.8710341 1.8667592 1.8631638 1.8600811 1.8570709 1.8538444 1.8501252 1.8460561
1.8415842 1.8367096 1.8318174 1.8269889 1.8224374 9.002964 9.030212 9.054336
9.080516 9.12642 9.208381 9.323325 9.455181 9.583909 9.69291 9.771113
9.818797 9.844413 9.859916 9.871081 9.87072 9.84691 9.794035 9.713121
9.61138 9.501231 9.394962 9.309181 9.252392 9.214445 9.177815 9.138808
9.098195 9.061445 9.033352 9.016711 9.01015 9.013695 9.026826 9.0471115
9.071181 63.296684 63.11116 63.07312 63.039486 62.98676 63.118797 63.229877
63.170586 63.098656 63.214096 63.272232 63.480896 63.630325 63.47851 63.389153
63.33847 63.344784 63.361942 63.555424 63.335026 63.243717 63.15943 63.21701
63.307457 63.33128 63.205196 63.056767 63.045883 62.990036 62.967167 63.18566
63.176083 63.125927 63.13046 63.182262 63.28059 5.8971086 11.766765
00000000: 07f6 3241 2305 7b3c 6558 b03c b522 e93c
00000010: 4680 173d aa7b 053d ce31 df3c b517 fa3c
00000020: fb6e f93c 2e22 c13c 8b56 1f3c a089 c1bb
00000030: 863d 90bc 9bb9 f1bc 3617 23bd 091c 1fbd
00000040: 2875 01bd 783d e0bc 1e84 d5bc bd1d bebc
00000050: 2afd b4bc de9f c2bc d9f2 73bc f19c 09bc
00000060: afb0 c1bb 0000 0000 0000 0000 0000 0000
00000070: 0000 0000 0000 0000 0000 0000 0000 0000
00000080: 0000 0000 0000 0000 0000 0000 0000 0000
00000090: 0000 0000 2ad6 063b 7933 ac3a a2a6 ca3a
000000a0: dc83 d839 5862 7fba 50fb 57b9 31ee a739
000000b0: 0045 36ba c7cf 07bb e036 41bb a520 33bb
000000c0: 2bac 1abb 878d 11bb 0bc8 74ba 4a40 573a
000000d0: da5d 963a 0c47 113a 7164 da39 7c2c d039
000000e0: b8d2 66b8 d4d8 3c3a 064f c93a 8f5d 6b3a
000000f0: f21c 883a 0000 0000 0000 0000 0000 0000
00000100: 0000 0000 0000 0000 0000 0000 0000 0000
00000110: 0000 0000 0000 0000 0000 0000 0000 0000
00000120: 0000 0000 94c5 e73f ad6c e73f 3f32 e73f
00000130: b025 e73f 0153 e73f 82be e73f 5370 e83f
00000140: cd5c e93f 9d6d ea3f d094 eb3f 7cb8 ec3f
00000150: 30c1 ed3f 4fa7 ee3f 7a6d ef3f f724 f03f
00000160: a0c2 f03f 1941 f13f 1f96 f13f 5bb6 f13f
00000170: ce9f f13f 9b4d f13f b3c7 f03f ae24 f03f
00000180: 0c7e ef3f f7f1 ee3f 277c ee3f 2317 ee3f
00000190: 80b4 ed3f c64a ed3f e7d0 ec3f 914b ec3f
000001a0: 08b9 eb3f 4d19 eb3f fe78 ea3f c6da e93f
000001b0: a145 e93f 240c 1041 c07b 1041 8fde 1041
000001c0: cb49 1141 d105 1241 8755 1341 572c 1541
000001d0: 6c48 1741 b157 1941 2916 1b41 7b56 1c41
000001e0: cb19 1d41 b782 1d41 37c2 1d41 f3ef 1d41
000001f0: 78ee 1d41 f28c 1d41 5eb4 1c41 f268 1b41
00000200: 36c8 1941 0b05 1841 c451 1641 68f2 1441
00000210: cc09 1441 5e6e 1341 55d8 1241 8f38 1241
00000220: 3592 1141 aefb 1041 9c88 1041 7344 1041
00000230: 9329 1041 1838 1041 e16d 1041 f8c0 1041
00000240: 8f23 1141 ce2f 7d42 d471 7c42 e04a 7c42
00000250: 6f28 7c42 71f2 7b42 a679 7c42 65eb 7c42
00000260: aeae 7c42 0665 7c42 3cdb 7c42 c416 7d42
00000270: 70ec 7d42 7485 7e42 ffe9 7d42 7e8e 7d42
00000280: 985a 7d42 0f61 7d42 a172 7d42 c138 7e42
00000290: 1157 7d42 91f9 7c42 42a3 7c42 38de 7c42
000002a0: d63a 7d42 3b53 7d42 1fd2 7c42 213a 7c42
000002b0: fc2e 7c42 ccf5 7b42 61de 7b42 1ebe 7c42
000002c0: 4fb4 7c42 f380 7c42 9785 7c42 a3ba 7c42
000002d0: 531f 7d42 1db5 bc40 ab44 3c41

model_1/Dense_O/BiasAdd/ReadVariableOp f4 [12]
-0.025030296 -0.019517811 -0.022516675 -0.018826397 -0.0069507374 -0.01361806 -0.021618132 -0.01681321
-0.020138884 -0.019871842 -0.019852584 -0.014334694
00000000: 560c cdbc d1e3 9fbc e474 b8bc d139 9abc
00000010: 03c3 e3bb 491e 5fbc 8218 b1bc dbbb 89bc
00000020: 4dfa a4bc 46ca a2bc e3a1 a2bc 10dc 6abc

model_1/Dense_D1/BiasAdd/ReadVariableOp f4 [100]
-0.007997683 -0.010873023 0.03532273 -0.011771733 -0.0052810167 0.011169443 -0.025559267 0.04457119
0.0029135726 0.048476953 0.02760523 -0.018521138 0.01166766 -0.029540312 -0.019148523 0.012548012
-0.020764379 -0.029923728 -0.01666689 -0.017031882 0.0037689472 -0.029179376 3.0009016e-05 0.004590951
-0.011427562 -0.023441391 0.034445014 -0.02128582 -0.007252416 -0.016300859 0.012718698 0.019114917
-0.0029250209 0.02113172 0.028468013 -0.049413458 0.011171238 -0.04150073 -0.0059827855 0.023415629
0.0049956064 0.005327185 0.00035187448 -0.0024750934 -0.01886051 -0.011869395 0.006026799 -0.028779926
0.022075899 -0.019929303 -0.009917913 -0.008038764 0.04201571 -0.014071808 -0.060512874 0.019732451
-0.028101066 0.006142108 0.01900926 -0.022104736 -0.01332707 0.037721857 -0.012237206 0.03298866
-0.034631263 0.011550587 -0.016931443 -0.020668587 0.04153824 0.032943416 -0.010325856 -0.014406281
0.031651665 -0.005921668 0.009061379 0.03045574 0.024936423 0.005955397 -0.017305516 -0.021532739
-0.01610697 -8.747755e-05 -0.0024877582 0.026305204 -0.030830756 0.019261938 0.062978685 -0.0060685934
0.037075248 0.005580414 -0.033803973 0.0020318967 0.0062638232 -0.022470174 -0.01779282 0.025081642
0.028820973 -0.011335944 0.039023455 -0.0117195165
00000000: b708 03bc c424 32bc 91ae 103d 3ade 40bc
00000010: 610c adbb 0a00 373c ab61 d1bc 4890 363d
00000020: a3f1 3e3b c58f 463d 5d24 e23c a4b9 97bc
00000030: b729 3f3c 86fe f1bc 5ddd 9cbc 2d96 4d3c
00000040: 0f1a aabc 9b22 f5bc 0089 88bc 7286 8bbc
00000050: 7100 773b 9609 efbc dfbb fb37 b06f 963b
00000060: ab3a 3bbc 2908 c0bc 3716 0d3d 9a5f aebc
00000070: ada5 edbb 6189 85bc 1662 503c e396 9c3c
00000080: b5b1 3fbb 6e1c ad3c c035 e93c c465 4abd
00000090: 9107 373c abfc 29bd 3e0b c4bb 22d2 bf3c
000000a0: 2fb2 a33b ab8f ae3b cb7b b839 2d35 22bb
000000b0: 5b81 9abc da77 42bc 747c c53b e1c3 ebbc
000000c0: 84d8 b43c c742 a3bc be7e 22bc 05b5 03bc
000000d0: aa18 2c3d 718d 66bc 59dc 77bd f3a5 a13c
000000e0: 3534 e6bc bc43 c93b 4fb9 9b3c fe14 b5bc
000000f0: c859 5abc 3c82 1a3d 907e 48bc 1e1f 073d
00000100: 83d9 0dbd ac3e 3d3c cfb3 8abc 2b51 a9bc
00000110: 0024 2a3d adef 063d c72d 29bc 5208 6cbc
00000120: 2da5 013d 8d0a c2bb 2e76 143c 517e f93c
00000130: 7847 cc3c 7e25 c33b 4cc4 8dbc 6d65 b0bc
00000140: c4f2 83bc 2774 b7b8 a809 23bb 037e d73c
00000150: c890 fcbc 36cb 9d3c f8fa 803d 0ddb c6bb
00000160: 37dc 173d e8db b63b 0976 0abd 9229 053b
00000170: c240 cd3b 5f13 b8bc 40c2 91bc 0478 cd3c
00000180: f619 ec3c 65ba 39bc 0fd7 1f3d 3703 40bc

model_1/Dense_C2/BiasAdd/ReadVariableOp f4 [100]
-0.0018886729 0.018811433 -0.022175949 -0.016357137 0.028102605 0.01357656 0.013550809 -0.016539956
-0.0019528973 0.0055350093 0.02132485 -0.005442657 -0.003825681 -0.0055004135 -0.006636338 0.0017792493
0.0040645497 0.002611779 0.01712056 -0.0074752085 0.014982389 -0.031044146 -0.00061053963 -0.0087056905
0.0064824647 0.021289272 0.012549007 0.004214237 -0.029072853 0.012373896 0.013806126 -0.0033998596
-0.00024312585 0.016167484 0.008253252 -0.021256372 0.020943582 0.01672392 0.0046829144 -0.018647997
0.00074202707 -0.00031936256 0.02176988 -0.025498543 0.0130811315 0.007896701 0.014674989 -0.009614433
0.018076727 0.0021479295 0.007925134 -0.020250242 0.012445452 0.023545587 -0.02544647 0.014942756
-0.009278755 -0.016361384 0.0031797083 0.0036835445 0.0014246446 -0.0027777744 0.0035750116 -0.018779662
0.0018430296 -0.004050905 0.01758341 0.0066974303 -0.01399299 -0.020794338 -0.010359996 -0.011734387
-0.024982076 0.018264927 -0.0023688292 0.012407522 -0.011619721 0.0023959293 -0.017300647 0.0004367503
-0.020840708 0.011820818 0.014920108 0.012436452 0.018862633 0.008850282 -0.015117478 0.033229418
0.0010762021 0.026096616 -0.0073519014 -0.009511544 -0.013864396 0.019670362 -0.022998767 0.023473896
-0.0061924066 -0.0017441988 0.0029368124 0.018330557
00000000: 598d f7ba 6f1a 9a3c 56aa b5bc 67ff 85bc
00000010: 6f37 e63c 3870 5e3c 3604 5e3c cd7e 87bc
00000020: 5cf8 ffba 065f b53b 74b1 ae3c 5158 b2bb
00000030: 47b8 7abb d03c b4bb a375 d9bb b335 e93a
00000040: ea2f 853b 612a 2b3b 6b40 8c3c 98f2 f4bb
00000050: b278 753c 4b50 febc 9f0c 20ba 50a2 0ebc
00000060: db6a d43b d766 ae3c 5a9a 4d3c 9517 8a3b
00000070: 312a eebc e2bb 4a3c 1733 623c 2ed0 5ebb
00000080: 99ef 7eb9 ac71 843c a638 073c d821 aebc
00000090: e091 ab3c 9a00 893c 2273 993b afc3 98bc
000000a0: 9884 423a 1e70 a7b9 bf56 b23c 52e2 d0bc
000000b0: 3e52 563c 2a61 013c 5d6f 703c db85 1dbc
000000c0: a515 943c 47c4 0c3b 6cd8 013c d6e3 a5bc
000000d0: 02e8 4b3c ade2 c03c 1e75 d0bc 76d2 743c
000000e0: eb05 18bc 4f08 86bc a762 503b 9f67 713b
000000f0: 24bb ba3a 520b 36bb be4a 6a3b ced7 99bc
00000100: d091 f13a 74bd 84bb 150b 903c 1e76 db3b
00000110: db42 65bc e358 aabc f9bc 29bc 9641 40bc
00000120: 36a7 ccbc 54a0 953c 5c3e 1bbb eb48 4b3c
00000130: a460 3ebc 0605 1d3b 16ba 8dbc a2fb e439
00000140: 22ba aabc 1bac 413c 7873 743c 43c2 4b3c
00000150: cf85 9a3c c600 113c 4caf 77bc 921b 083d
00000160: 5a0f 8d3a 92c8 d53c 38e8 f0bb 4fd6 1bbc
00000170: 7e27 63bc bd23 a13c e967 bcbc 544c c03c
00000180: ace9 cabb 9a9d e4ba 8977 403b f729 963c

model_1/Conv_1/BiasAdd/ReadVariableOp f4 [5]
0.006261104 0.00032928475 -0.0011208582 -0.009491666 0.0021878593
00000000: f229 cd3b daa3 ac39 c3e9 92ba ef82 1bbc
00000010: 3062 0f3b

model_1/Dense_D1/MatMul1 f4 [100, 183]
0.086277 0.03310769 0.021336846 -0.0010865588 -0.100695945 -0.13789131 -0.061957426 0.04105953
-0.062313452 -0.17918156 0.010270316 -0.06942707 -0.1171585 -0.04599288 -0.032723147 0.06459529
-0.15875828 -0.11036415 -0.05708282 0.008792395 -0.03844747 -0.07332102 0.048403174 0.06312357
-0.054029036 -0.123085804 -0.1349014 0.09755473 0.0565214 0.054004326 -0.08493619 -0.08847438
0.04596354 0.05878748 -0.035920158 0.041018978 -0.10046047 0.081139885 -0.05797691 0.033440806
-0.12927043 0.0074549015 0.033582695 -0.06785818 -0.06392485 -0.028652405 0.031557135 -0.08664209
-0.06871325 -0.06431697 -0.07695082 0.042937167 -0.07099658 0.08496494 -0.0072317426 -0.06298927
0.039141573 -0.040470574 -0.0074478695 0.108621396 0.1705451 -0.006927669 0.11928645 0.018324435
0.020654052 -0.07743387 0.01071696 0.04576917 -0.028721742 0.13004473 0.05144666 0.13652441
-0.011623904 0.09335031 0.032072615 -0.10882813 0.0271764 -0.060175765 -0.006626544 -0.12153521
0.051989924 0.0026993828 -0.15112685 -0.02400308 -0.12249276 0.12661022 0.08175758 -0.016127069
-0.13530993 0.044914488 -0.05854816 0.047027957 0.04421886 -0.007255195 0.034952436 -0.12639265
0.022763137 0.036502063 0.15201616 0.011433948 0.13308093 -0.086602226 0.014013446 -0.17927898
-0.063919686 -0.1954989 -0.013559409 -0.020137127 0.2604915 0.03365265 -0.015995754 0.032854114
-0.10129354 -0.054865118 -0.038040563 -0.02289568 0.10856494 -0.10360756 -0.010932811 -0.0042999038
-0.073616095 0.08838487 -0.054155733 -0.0643461 0.041404236 0.0021564467 0.09441564 0.12279361
0.0214965 -0.036468312 0.090904035 -0.09276338 -0.14624438 0.07797568 -0.056267716 -0.061160386
0.040894315 0.12750219 -0.09543588 -0.022410257 0.12674929 -0.04691938 -0.025979765 0.0012498957
0.12917387 -0.1156087 0.09600988 0.14809032 -0.11167445 0.018777296 0.07628115 -0.00086718245
-0.052549846 0.10868872 -0.1024051 -0.14456633 0.13397884 0.105164155 -0.01626977 -0.044490565
-0.0005747304 0.17767009 -0.03985004 -0.13757567 0.065203905 0.062729046 0.16254476 -0.05883635
0.12675725 -0.1345183 0.0074740634 0.08737061 -0.08279487 0.013324335 -0.024536828 0.052191984
-0.06507978 -0.0703302 -0.06485727 -0.11874178 0.07169537 -0.0110451635 -0.11009168 -0.024010021
-0.015265818 0.027813105 -0.05695134 0.06841607 -0.10902358 0.03719727 0.00464988 0.10734047
-0.09484923 0.08082501 0.06309385 0.0053512873 0.12183851 0.015990034 0.036702964 -0.0011342232
-0.044086892 -0.13128772 -0.044767782 0.081824675 0.07374014 0.0548352 -0.16256706 0.17321639
0.05354713 0.07856351 -0.113270506 -0.103734314 0.10585451 0.027552664 0.033861816 0.015481487
0.10208456 0.046433344 -0.034568265 0.049880445 -0.0272217 -0.10983118 0.053936057 -0.057330348
0.006488209 -0.09262017 0.022005517 -0.10372329 0.011902256 -0.022186782 -0.025281798 -0.047203448
0.029419225 0.064868614 0.018618738 -0.012716506 0.02450796 -0.095532455 -0.086058706 -0.10134312
0.0061606104 -0.103753686 -0.0052587767 -0.050146133 0.1213738 0.07665749 0.13737443 0.05333297
-0.10096746 -0.081385426 -0.113133624 0.010591149 -0.09203786 -0.14417592 -0.016613796 0.1350187
00000000: ffb1 b03d ee9b 073d 9cca ae3c dd6a 8eba
00000010: ad39 cebd 6133 0dbe 12c7 7dbd 0a2e 283d
00000020: 643c 7fbd 5f7b 37be d444 283c c82f 8ebd
00000030: ccf0 efbd 0863 3cbd b508 06bd 894a 843d
00000040: 8891 22be 9906 e2bd adcf 69bd fa0d 103c
00000050: 187b 1dbd 5529 96bd 6842 463d ee46 813d
00000060: 8d4d 5dbd 6914 fcbd 9823 0abe c6ca c73d
00000070: fc82 673d a433 5d3d 06f3 adbd 0e32 b5bd
00000080: 4444 3c3d 24cb 703d 0421 13bd 8403 283d
00000090: 38be cdbd ab2c a63d 3279 6dbd 3af9 083d
000000a0: 785f 04be 3f48 f43b 028e 093d 3bf9 8abd
000000b0: 08eb 82bd 73b8 eabc 0e42 013d 6871 b1bd
000000c0: 88b9 8cbd 9eb8 83bd 6498 9dbd e2de 2f3d
000000d0: a866 91bd 1902 ae3d 41f8 ecbb 8500 81bd
000000e0: ea52 203d 79c4 25bd 420d f4bb e574 de3d
000000f0: 60a3 2e3e 8001 e3bb 744c f43d 201d 963c
00000100: b032 a93c a695 9ebd 3096 2f3c 7478 3b3d
00000110: dc49 ebbc 722a 053e bcb9 523d 0ecd 0b3e
00000120: 3072 3ebc 732e bf3d 935e 033d 48e1 debd
00000130: 0ba1 de3c dd7a 76bd 7b23 d9bb 74e7 f8bd
00000140: 63f3 543d 21e8 303b ffc0 1abe 1ba2 c4bc
00000150: 7cdd fabd 1ca6 013e 8570 a73d ea1c 84bc
00000160: b08e 0abe 41f8 373d 32d0 6fbd 63a0 403d
00000170: d61e 353d fdbc edbb 492a 0f3d 136d 01be
00000180: c279 ba3c 3083 153d 20aa 1b3e 7455 3b3c
00000190: 5e46 083e 825c b1bd a798 653c e994 37be
000001a0: 53e8 82bd dd30 48be 4928 5ebc 9ef6 a4bc
000001b0: 245f 853e 5cd7 093d 8709 83bc 0992 063d
000001c0: fd72 cfbd 3fba 60bd 6cd0 1bbd b98f bbbc
000001d0: 4c57 de3d 3330 d4bd 881f 33bc 35e6 8cbb
000001e0: 09c4 96bd 2003 b53d 67d2 5dbd e3c7 83bd
000001f0: 7d97 293d 2c53 0d3b fd5c c13d 377b fb3d
00000200: 6e19 b03c cc5f 15bd e52b ba3d bafa bdbd
00000210: 16c1 15be b7b1 9f3d fa78 66bd 5083 7abd
00000220: cc80 273d ef8f 023e e373 c3bd b795 b7bc
00000230: 91ca 013e 892e 40bd 84d3 d4bc 8ad3 a33a
00000240: 2846 043e 41c4 ecbd d4a0 c43d fda4 173e
00000250: 93b5 e4bd d8d2 993c 4b39 9c3d a153 63ba
00000260: 823e 57bd 3198 de3d c4b9 d1bd 3209 14be
00000270: c031 093e 4e60 d73d 2e48 85bc bd3b 36bd
00000280: 81a9 16ba 26ef 353e cc39 23bd a3e0 0cbe
00000290: a089 853d 1678 803d 2272 263e 62fe 70bd
000002a0: a7cc 013e 2abf 09be fde8 f43b 5def b23d
000002b0: 5b90 a9bd 504e 5a3c 7501 c9bc 43c7 553d
000002c0: 8c48 85bd 4809 90bd e3d3 84bd e42e f3bd
000002d0: 06d5 923d c6f6 34bc bf77 e1bd aab0 c4bc
000002e0: 7b1d 7abc 4fd8 e33c cf45 69bd b91d 8c3d
000002f0: c147 dfbd 2a5c 183d 055e 983b 52d5 db3d
00000300: 5040 c2bd 9587 a53d 5937 813d da59 af3b
00000310: 7886 f93d 88fd 823c d955 163d 37aa 94ba
00000320: 7594 34bd 4a70 06be 6c5e 37bd b293 a73d
00000330: 1205 973d e09a 603d fb77 26be a35f 313e
00000340: 3c54 5b3d e8e5 a03d 5efa e7bd a872 d4bd
00000350: 40ca d83d 20b6 e13c b0b2 0a3d 10a6 7d3c
00000360: b611 d13d e430 3e3d 7497 0dbd 704f 4c3d
00000370: 0b00 dfbc 2bef e0bd 0eec 5c3d 3ad3 6abd
00000380: 0b9b d43b a5af bdbd ea44 b43c e06c d4bd
00000390: ae01 433c 0ec1 b5bc c61b cfbc 6758 41bd
000003a0: 9600 f13c d6d9 843d 5386 983c e458 50bc
000003b0: ebc4 c83c 85a6 c3bd 8c3f b0bd fb8c cfbd
000003c0: f2de c93b d07c d4bd d151 acbb 0866 4dbd
000003d0: d492 f83d 9afe 9c3d e2ab 0c3e ac73 5a3d
000003e0: 07c8 cebd 67ad a6bd 9ab2 e7bd 8086 2d3c
000003f0: 587e bcbd daa2 13be a819 88bc 5842 0a3e

model_1/Dense_C2/MatMul f4 [100, 355]
0.054275446 0.038868785 -0.09392606 0.078808255 0.09824237 -0.04448437 -0.08369577 0.045480065
-0.009079191 0.048296943 0.06026936 0.017998992 -0.10427636 -0.059902947 -0.03200179 -0.02955608
-0.022666333 0.03863852 -0.04623999 -0.06019898 0.10132854 0.080548145 0.070842385 -0.006078735
0.02466235 -0.082560204 0.039041083 0.09366839 0.007995242 0.0059161596 0.072661586 -0.04172993
-0.009694403 0.07277231 -0.09197396 0.025486415 -0.011968932 0.028499618 0.039244227 -0.06499243
0.052545026 -0.08751091 -0.123686485 0.038238455 -0.06679622 -0.027878545 -0.08050103 -0.09748587
-0.069697194 -0.07320494 0.115940265 0.07675777 0.06903922 -0.13238543 0.0030291856 0.05957903
0.0029579825 -0.011284887 0.0454622 -0.01694336 0.0071293195 -0.105448514 -0.13203564 0.012799402
0.097168796 -0.08344844 -0.016923819 0.0638129 0.11007139 0.071705714 0.10388045 -0.06389149
0.077556066 -0.08478281 -0.004625673 0.039482825 0.018493602 -0.045997094 0.008473439 -0.016066296
-0.007026982 0.0021565894 -0.06516299 -0.10280581 -0.10410303 -0.031908035 0.089454934 0.012535241
0.07266664 0.124802716 0.10233767 0.028647056 -0.040394116 -0.050564997 0.06151967 -0.09093391
0.015848015 0.028481046 -0.038636837 -0.12901376 0.12636483 -0.011664643 -0.16200139 -0.044426862
0.12374813 0.011259295 -0.03149117 -0.005877587 0.052143995 0.05577547 -0.043447617 -0.057603918
-0.035680857 0.031341653 0.16230454 0.020228824 0.05204414 0.080872506 -0.021815306 -0.051858496
0.068042286 0.02484373 0.080782436 -0.10544547 0.0384331 -0.08865122 -0.03561914 -0.048486434
0.073314846 0.09698317 0.092275806 -0.17554156 -0.0857752 0.046322424 0.030525187 -0.036051042
0.22629768 0.011873267 -0.09350199 -0.088905044 -0.03241678 0.06439522 -0.091380954 0.14544526
-0.02248915 -0.06581144 0.004465527 0.0030303537 0.05158327 0.030502867 0.083481684 0.06859485
-0.032369964 0.072656065 0.10139853 -0.017971177 -0.06982654 0.0041858484 -0.08579995 0.05157188
-0.018615348 -0.04245154 0.030771416 0.04837859 -0.05010963 -0.006078515 -0.026670424 0.08238002
-0.03083771 -0.00026956375 -0.06017237 -0.05875548 0.009306581 0.025708444 0.113504715 0.09932028
-0.18469007 0.003882749 -0.015661601 -0.03509083 0.020441685 -0.02620903 0.047591638 -0.0195237
0.020951668 0.0043149265 0.0766582 0.0321015 0.030754993 0.04448405 0.0054080226 -0.06819924
-0.045850817 0.010974181 0.092405856 0.026182225 -0.17523718 0.082129136 -0.007216614 -0.108915366
0.11777308 0.09219078 -0.16696931 -0.09524802 0.05651056 -0.12853447 0.11491058 0.11010063
0.094794974 -0.08469623 -0.15233372 0.019608837 0.09122295 0.06895612 0.02337284 -0.0275881
0.11153391 -0.16219907 -0.063354656 -0.17614236 0.06578354 0.14533004 0.06542891 0.046672508
-0.011938493 -0.088827044 0.075923726 -0.15257847 -0.039598953 -0.060714588 -0.06366205 0.07959433
-0.052602854 -0.050266992 -0.10073182 -0.039184112 -0.07695622 -0.020911798 0.11362968 0.07187222
0.12746474 -0.063415706 -0.08049754 0.0172281 0.13904473 -0.27317846 0.010622082 0.036353238
-0.09204395 0.093857616 0.16033776 0.24065067 0.12256212 0.10525521 0.093240194 -0.16368435
00000000: ee4f 5e3d e034 1f3d 4e5c c0bd 3966 a13d
00000010: 4c33 c93d 3e35 36bd b068 abbd 4e49 3a3d
00000020: e3c0 14bc 04d3 453d 01dd 763d 9f72 933c
00000030: d88e d5bd cb5c 75bd 4f14 03bd 981f f2bc
00000040: bfae b9bc 6d43 1e3d 2566 3dbd 3593 76bd
00000050: 5685 cf3d 6df6 a43d d015 913d 2030 c7bb
00000060: b208 ca3c 5315 a9bd 8be9 1f3d 36d5 bf3d
00000070: 7afe 023c 58dc c13b 99cf 943d 01ed 2abd
00000080: 46d5 1ebc a609 953d d85c bcbd e3c8 d03c
00000090: 5719 44bc 0878 e93c 8ebe 203d c01a 85bd
000000a0: 7439 573d ec38 b3bd 574f fdbd ed9f 1c3d
000000b0: 75cc 88bd 8c61 e4bc b9dd a4bd aca6 c7bd
000000c0: 67bd 8ebd 79ec 95bd 1772 ed3d 2d33 9d3d
000000d0: 6f64 8d3d 0c90 07be 4d85 463b 2409 743d
000000e0: b6da 413b 3fe4 38bc 9236 3a3d cdcc 8abc
000000f0: 119d e93b 64f5 d7bd 5a34 07be 95b4 513c
00000100: 6f00 c73d 04e7 aabd d2a3 8abc 56b0 823d
00000110: 1c6d e13d 72da 923d 46bf d43d 8bd9 82bd
00000120: b7d5 9e3d 9ca2 adbd f592 97bb beb8 213d
00000130: e57f 973c 7367 3cbd 2ed4 0a3c 779d 83bc
00000140: 9942 e6bb 9155 0d3b 2c74 85bd da8b d2bd
00000150: f833 d5bd 00b2 02bd 2634 b73d 9d60 4d3c
00000160: 3fd2 943d 9198 ff3d 6a96 d13d 3bad ea3c
00000170: 4d74 25bd 3e1d 4fbd 0dfc 7b3d 8f3b babd
00000180: b2d3 813c 1551 e93c a941 1ebd 2f1c 04be
00000190: c865 013e 0f1d 3fbc b1e3 25be f1f8 35bd
000001a0: a96f fd3d e878 383c e3fc 00bd c698 c0bb
000001b0: f194 553d d274 643d 21f6 31bd 16f2 6bbd
000001c0: 1726 12bd 1b60 003d 2933 263e ebb6 a53c
000001d0: 3c2c 553d 7ca0 a53d 03b6 b2bc 9369 54bd
000001e0: c159 8b3d 1485 cb3c 4371 a53d cbf3 d7bd
000001f0: 076c 1d3d c58e b5bd 60e5 11bd b699 46bd
00000200: 1826 963d 1d9f c63d 19fb bc3d 2bc1 33be
00000210: e8aa afbd 95bc 3d3d f50f fa3c 42aa 13bd
00000220: 94ba 673e 1788 423c f97d bfbd d913 b6bd
00000230: 75c7 04bd a4e1 833d f025 bbbd 9aef 143e
00000240: 2a3b b8bc 26c8 86bd 8e53 923b e698 463b
00000250: fb48 533d 26e1 f93c 72f8 aa3d 757b 8c3d
00000260: 5e96 04bd b4cc 943d 08aa cf3d 4a38 93bc
00000270: 3801 8fbd 7129 893b e2b7 afbd 093d 533d
00000280: 377f 98bc aae1 2dbd 5614 fc3c a128 463d
00000290: c13f 4dbd 482e c7bb ef7b dabc dbb6 a83d
000002a0: 5d9f fcbc 3c54 8db9 4e77 76bd 96a9 70bd
000002b0: a17a 183c 849a d23c 2975 e83d 6e68 cb3d
000002c0: 651f 3dbe b875 7e3b c24c 80bc 67bb 0fbd
000002d0: 5275 a73c 52b4 d6bc 73ef 423d 2bf0 9fbc
000002e0: d5a2 ab3c 3a64 8d3b f9fe 9c3d dd7c 033d
000002f0: e5f1 fb3c e834 363d c835 b13b 0bac 8bbd
00000300: 11ce 3bbd 0dcd 333c 483f bd3d 1b7c d63c
00000310: 6071 33be 5233 a83d 5979 ecbb 050f dfbd
00000320: 0333 f13d 85ce bc3d 01fa 2abe 6511 c3bd
00000330: 9e77 673d 8a9e 03be 3d56 eb3d 707c e13d
00000340: de23 c23d 3875 adbd 5ffd 1bbe b6a2 a03c
00000350: 19d3 ba3d de38 8d3d 6678 bf3c 7000 e2bc
00000360: e46b e43d 8317 26be 16c0 81bd aa5e 34be
00000370: 85b9 863d 66d1 143e 98ff 853d ac2b 3f3d
00000380: ab99 43bc f4ea b5bd e67d 9b3d 883d 1cbe
00000390: 8332 22bd dcaf 78bd 4061 82bd 5a02 a33d
000003a0: 1776 57bd c3e4 4dbd 7c4c cebd 857f 20bd
000003b0: 399b 9dbd 384f abbc adb6 e83d be31 933d
000003c0: 1e86 023e 18e0 81bd e5db a4bd f221 8d3c
000003d0: be61 0e3e 0cde 8bbe 3e08 2e3c 22e7 143d
000003e0: 8a81 bcbd 6c38 c03d 952f 243e 216d 763e
000003f0: d901 fb3d 0b90 d73d b7f4 be3d df9c 27be

model_1/Dense_O/MatMul f4 [12, 200]
-0.19071068 0.052029986 0.045324914 0.03603298 0.014828425 -0.0071822773 -0.07824383 -0.12384563
-0.0018256864 0.04228766 0.01459872 -0.020744227 0.0034183278 -0.058457788 0.12603511 0.013486063
-0.0004676334 -0.009132741 -0.16309108 0.077665575 0.07806265 -0.070838995 0.023343328 -0.040910937
-0.0061655478 0.04141332 0.05836346 -0.011968178 -0.09044869 0.059486445 -0.0010810067 -0.038499676
0.010061998 -0.011388505 0.01758642 0.01171537 0.026484204 -0.02611321 -0.02524089 0.07248281
0.13553837 -0.049261007 -0.005039824 -0.016758759 -0.027588878 0.08928924 -0.0524642 -0.03588508
-0.017831627 -0.023965193 0.14060885 -0.11019692 0.02248891 -0.049515855 1.11189765e-05 0.080109
0.017011601 -0.10762205 0.0399 0.059601128 0.019867005 0.05068627 -0.03186443 -0.031967457
0.16775008 -0.1415476 0.002833605 0.096323915 -0.055347387 -0.068925746 0.0745815 0.047889836
-0.041374017 0.030544903 -0.03670984 0.038752947 0.04773122 0.08724764 -0.13478374 0.05589043
-0.0075392555 0.03595012 -0.15112157 -0.110926986 0.2306496 0.019077767 0.050972957 0.03423929
-0.013620735 0.032009423 -0.078596614 -0.013453622 0.025849031 -0.022902368 0.015064223 -0.02715493
0.06525198 0.01926689 -0.026761526 0.0062389635 0.024621112 0.011602458 0.0075287377 -0.00996746
0.0141868675 0.0025380217 0.019473564 0.003078853 0.036251027 -0.0016991944 0.003875072 -0.045535244
-0.0105922865 -0.0039072153 -0.00094453915 -0.0016316678 0.014306821 -0.013475204 0.0018096183 -0.0007553379
-0.0035721208 0.0026257266 0.0015105093 -0.01919841 -0.015416976 -0.0040892153 0.0033110136 -0.0067944624
-0.047646992 -0.0034789306 -0.009346038 0.008669463 0.0024008711 -0.0042536026 0.00810983 0.009813866
-0.0131586855 0.012492719 0.02018932 0.06653089 -0.023128537 -0.010124294 0.0028955694 -0.05280694
0.036255762 0.0046264287 -0.00523748 0.0019545679 0.008312087 -0.012018191 0.004313028 0.0069340495
-0.01900749 -0.016541163 -0.0025747495 0.010317802 -0.01378376 0.0017556803 -0.003859221 -0.037266638
0.0012646131 -0.0015120849 0.0036543678 -0.0029508527 0.0068425145 -0.044981044 -0.0025185156 -0.012777137
0.012061761 0.025870033 -0.0052046953 0.002092236 -0.0009483728 0.016840251 -0.012518244 -0.0012995393
0.0240261 -0.0018052249 0.061399974 -0.004156921 -0.02156708 0.0064175734 0.0013598641 0.0047479556
-0.06471986 -0.008895815 -0.0013951759 0.004644708 -0.0017680979 -0.010786046 -0.018038599 0.083807126
-0.021365933 -0.025108172 0.0011177112 0.03086917 -0.007466436 -0.0066693304 -0.01590563 -0.011166405
-0.08419035 -0.11834858 0.19502662 0.06665234 0.09666735 0.15500657 -0.05341068 -0.03877112
0.004974336 -0.15393746 -0.06818429 -0.10976934 0.021113722 -0.053820103 -0.06368288 0.040635724
0.026850974 0.017098652 0.07333246 -0.03474429 0.05761133 0.1341844 -0.13848205 0.08877772
-0.009069056 0.013163977 0.16851963 0.0030688934 -0.005868401 0.0005598016 -0.042382155 0.010103488
-0.103522986 0.06358531 -0.044911288 -0.036165923 0.012109042 0.010597919 -0.002568695 0.1292145
0.007294853 0.11477149 -0.09539382 -0.040610503 -0.04727751 0.05708005 -0.013690363 0.108301796
0.0033347148 0.06834758 0.06049716 -0.20011768 0.04174291 -0.038867753 0.05481535 0.026362712
00000000: a949 43be 651d 553d 9ea6 393d 5197 133d
00000010: ecf2 723c 4f59 ebbb 4d3e a0bd c7a2 fdbd
00000020: df4b efba d335 2d3d 782f 6f3c ccef a9bc
00000030: 0606 603b 6f71 6fbd 590f 013e a6f4 5c3c
00000040: b12c f5b9 7ea1 15bc 5901 27be 210f 9f3d
00000050: 50df 9f3d 0914 91bd 823a bf3c 3a92 27bd
00000060: 5d08 cabb 03a1 293d 860e 6f3d 2d16 44bc
00000070: 2a3d b9bd 0fa8 733d 91b0 8dba d6b1 1dbd
00000080: 14db 243c da96 3abc 6511 903c d3f1 3f3c
00000090: 67f5 d83c 5feb d5bc fcc5 cebc de71 943d
000000a0: 92ca 0a3e e9c5 49bd 1c25 a5bb aa49 89bc
000000b0: 1202 e2bc 47dd b63d b3e4 56bd 3cfc 12bd
000000c0: a213 92bc a752 c4bc c4fb 0f3e ecae e1bd
000000d0: aa3a b83c 23d1 4abd a48b 3a37 3010 a43d
000000e0: ea5b 8b3c f368 dcbd 2f6e 233d 5020 743d
000000f0: 21c0 a23c 689c 4f3d 4784 02bd 4ff0 02bd
00000100: adc6 2b3e dbf1 10be 01b4 393b 7945 c53d
00000110: f1b3 62bd f128 8dbd 2fbe 983d 2228 443d
00000120: cd77 29bd 4e39 fa3c 0f5d 16bd 69bb 1e3d
00000130: d081 433d e4ae b23d c004 0abe 5ded 643d
00000140: dc0b f7bb 6f40 133d 9dbf 1abe b02d e3bd
00000150: 692f 6c3e fa48 9c3c 05c9 503d 7f3e 0c3d
00000160: 8129 5fbc 501c 033d 43f7 a0bd 956c 5cbc
00000170: 59c1 d33c bf9d bbbc eecf 763c 0474 debc
00000180: d5a2 853d 99d5 9d3c fd3a dbbc 3870 cc3b
00000190: 37b2 c93c 3c18 3e3c a1b3 f63b 8f4e 23bc
000001a0: 0970 683c f054 263b 0687 9f3c 95c6 493b
000001b0: f57b 143d 81b7 deba ecf4 7d3b 2a83 3abd
000001c0: 458b 2dbc 1908 80bb f39a 77ba b0dd d5ba
000001d0: 2867 6a3c 1ac7 5cbc b730 ed3a de01 46ba
000001e0: 3e1a 6abb 6214 2c3b 48fc c53a fc45 9dbc
000001f0: 7c97 7cbc d3fe 85bb 97fd 583b 15a4 debb
00000200: 7e29 43bd c5fe 63bb 2020 19bc 5d0a 0e3c
00000210: ef57 1d3b ce61 8bbb 18df 043c 56ca 203c
00000220: 8797 57bc 43ae 4c3c 1364 a53c 5941 883d
00000230: 0f78 bdbc 5ee0 25bc 98c3 3d3b 174c 58bd
00000240: ec80 143d 4c99 973b 2b9f abbb 3518 003b
00000250: 6b2f 083c f2e7 44bc 4d54 8d3b 0637 e33b
00000260: 98b5 9bbc 5581 87bc 21bd 28bb 000c 293c
00000270: 48d5 61bc db1e e63a fcea 7cbb e7a4 18bd
00000280: 60c1 a53a 2631 c6ba 1e7e 6f3b 1863 41bb
00000290: 2c37 e03b 0b3e 38bd ae0d 25bb 3257 51bc
000002a0: b19e 453c 64ed d33c 268c aabb e51d 093b
000002b0: 399c 78ba 91f4 893c 5219 4dbc 4e55 aaba
000002c0: 62d2 c43c 4c9d ecba 8a7e 7b3d c836 88bb
000002d0: 72ad b0bc 824a d23b 783d b23a bd94 9b3b
000002e0: d98b 84bd c1bf 11bc 56de b6ba a232 983b
000002f0: 85bf e7ba f5b7 30bc afc5 93bc 12a3 ab3d
00000300: 9c07 afbc a7af cdbc 2a80 923a 57e1 fc3c
00000310: 01a9 f4bb 668a dabb 864c 82bc 4cf3 36bc
00000320: fd6b acbd be60 f2bd 0fb5 473e 0681 883d
00000330: 88f9 c53d 0bba 1e3e 28c5 5abd 77ce 1ebd
00000340: c1ff a23b c8a1 1dbe 34a4 8bbd bfce e0bd
00000350: aff6 ac3c 7872 5cbd 2b6c 82bd a571 263d
00000360: 93f6 db3c 7912 8c3c 542f 963d 0750 0ebd
00000370: dcf9 6b3d a367 093e 3dce 0dbe 18d1 b53d
00000380: 6196 14bc b9ad 573c 6990 2c3e 7d1f 493b
00000390: b74b c0bb a6bf 123a e998 2dbd 1a89 253c
000003a0: dc03 d4bd 0439 823d e6f4 37bd b822 14bd
000003b0: 0165 463c e5a2 2d3c 8d57 28bb ce50 043e
000003c0: aa09 ef3b 510d eb3d d65d c3bd 3357 26bd
000003d0: 10a6 41bd c5cc 693d 8b4d 60bc 55cd dd3d
000003e0: 3b8b 5a3b d1f9 8b3d dfcb 773d a6eb 4cbe
000003f0: 9dfa 2a3d cb33 1fbd 0f86 603d 9df6 d73c
